models/archive/first_simpleModel.pth (torch, 593263 bytes, 8 tensors)

conv1.weight f4 [6, 3, 5, 5]
-0.253612 -0.11803606 -0.13501136 -0.06854985 0.12623829 -0.093187355 -0.2986712 -0.22594434
-0.09244044 -0.0072465283 -0.0790703 -0.20132862 -0.106794745 -0.23598005 -0.0958672 0.096040696
0.20121956 0.11595047 0.115232706 -0.14591378 0.1270859 0.10155785 0.18191743 0.26576677
0.1205856 -0.05201553 -0.035286136 -0.032130115 -0.014386121 0.16650444 -0.14048347 -0.13565825
-0.31868887 -0.07480078 -0.14260224 -0.22903894 -0.21387352 -0.31437236 -0.22591516 -0.066707835
-0.0928459 0.073542744 -0.0012312918 -0.12947753 -0.2797172 -0.040816586 -0.03334296 0.17878403
-0.006125042 0.06413902 0.09637483 -0.0095885135 0.03908516 0.15991789 0.2890987 0.114554346
-0.06763541 -0.047533143 -0.039858554 0.03576942 0.078888066 -0.0005559615 -0.07703512 -0.10043901
0.051331628 -0.010552425 0.19877794 0.22004479 0.08702001 -0.15201737 0.16781089 0.29003116
0.14077546 0.17109051 0.0055456883 0.03405834 0.1023675 0.06228376 0.29063958 0.18919538
-0.008531631 -0.10672621 -0.016667467 0.027319426 -0.010271884 -0.14934763 -0.1578767 -0.24443352
-0.05520014 -0.05554333 -0.07185594 -0.084957756 -0.12345285 -0.14139755 -0.11778911 -0.17965852
-0.03993817 -0.111240014 -0.03906961 -0.108066015 -0.11628761 -0.17140585 0.06737696 -0.06569432
0.049047727 -0.11255076 0.06899034 -0.058420602 -0.018864205 -0.011307856 -0.039966825 -0.015171837
0.025453301 -0.05535873 -0.053796474 -0.05327596 -0.06899569 0.0131099345 0.05921496 -0.067334026
-0.18487118 -0.1701562 -0.16123417 -0.15345679 -0.10186367 -0.1763033 0.033374593 -0.012904525
0.049841814 -0.13758096 -8.881948e-05 0.11827207 0.28184426 0.21913505 0.0363897 0.106044695
0.18971637 0.3619511 0.24924286 0.1445513 -0.0066688554 0.24404038 0.19228542 0.25402972
0.14411683 0.031834945 0.066638485 0.21667138 0.2397829 0.039747737 0.42055255 0.41462
0.35640812 0.3618409 0.44349357 0.18968105 0.23788364 0.24794193 0.33589575 0.3350587
0.081058845 0.025299137 0.012649096 0.08859721 0.13656911 -0.045628726 -0.04810726 -0.07913763
0.006862969 -0.0466156 -0.43054637 -0.37912956 -0.32514483 -0.31671226 -0.350778 0.09354872
0.05914102 -0.20927912 -0.18191354 -0.23486105 -0.14718667 -0.15206312 -0.3226832 -0.3352154
-0.18676259 -0.16286272 -0.093124494 -0.31232715 -0.23802829 -0.15745887 -0.11097615 -0.08722018
-0.2741156 -0.11701351 -0.02381008 0.09731228 0.08914316 -0.12243784 -0.14106552 0.037757672
0.2014441 0.034994148 0.039489128 -0.09532918 -0.18245581 0.047420345 -0.06457924 -0.18842351
-0.25218856 -0.24750803 0.07957763 -0.030600596 -0.14032775 -0.242006 -0.1900341 0.23358297
0.29326874 0.18402891 0.04974016 0.12346212 0.36069214 0.32504532 0.19687898 0.18442705
0.15098535 0.010941262 -0.18587868 -0.09591353 0.035055812 0.19645268 0.17579392 -0.046673298
-0.3291461 -0.3066927 0.38565323 0.13260736 0.30808502 -0.4599528 -0.3509389 0.29067007
-0.029170861 0.28213894 -0.056149065 -0.4963552 0.14724416 -0.07278615 0.15023042 0.071946785
-0.18318269 -0.056939334 0.066643305 -0.033923004 -0.04647348 -0.0938948 0.208462 0.25160074
00000000: 6fd9 81be e4bc f1bd 6b40 0abe dd63 8cbd
00000010: 9c44 013e 03d9 bebd 6eeb 98be f45d 67be
00000020: 6a51 bdbd 4974 edbb 9cef a1bd 1729 4ebe
00000030: 34b7 dabd c1a4 71be 0656 c4bd fcb0 c43d
00000040: 800c 4e3e 7177 ed3d 20ff eb3d 6c6a 15be
00000050: ce22 023e 90fd cf3d 9048 3a3e 9512 883e
00000060: 95f5 f63d 3d0e 55bd 3288 10bd de9a 03bd
00000070: c4b3 6bbc 2480 2a3e e6da 0fbe ffe9 0abe
00000080: 302b a3be 2731 99bd 5206 12be 2f89 6abe
00000090: a901 5bbe 6af5 a0be 4e56 67be 1e9e 88bd
000000a0: fe25 bebd 949d 963d 4c63 a1ba c295 04be
000000b0: 1837 8fbe 4b2f 27bd a192 08bd 2913 373e
000000c0: 94b4 c8bb 525b 833d 2b60 c53d 2419 1dbc
000000d0: c317 203d 84c1 233e bf04 943e 789b ea3d
000000e0: 6f84 8abd 1db2 42bd b942 23bd f582 123d
000000f0: 1190 a13d f2bd 11ba 97c4 9dbd f8b2 cdbd
00000100: 1d41 523d 14e4 2cbc 728c 4b3e 6c53 613e
00000110: 8c37 b23d 71aa 1bbe 9ed6 2b3e f77e 943e
00000120: 7127 103e 5a32 2f3e 9bb8 b53b c280 0b3d
00000130: 0da6 d13d 421d 7f3d b6ce 943e 6fbc 413e
00000140: 41c8 0bbc 4593 dabd 368a 88bc fdcc df3c
00000150: 674b 28bc 96ee 18be 6eaa 21be c84c 7abe
00000160: 8b19 62bd 6781 63bd 3529 93bd 55fe adbd
00000170: d9d4 fcbd 85ca 10be 6b3b f1bd 67f8 37be
00000180: 3596 23bd ced1 e3bd 7507 20bd b751 ddbd
00000190: 3328 eebd 0485 2fbe eefc 893d be8a 86bd
000001a0: 45e6 483d 0381 e6bd cf4a 8d3d 714a 6fbd
000001b0: 1b89 9abc 9644 39bc 41b4 23bd 4c93 78bc
000001c0: 7183 d03c d6bf 62bd b159 5cbd e537 5abd
000001d0: 9d4d 8dbd 0dcb 563c 638b 723d 6ce6 89bd
000001e0: df4e 3dbe 6d3d 2ebe 921a 25be c723 1dbe
000001f0: e69d d0bd da88 34be ccb3 083d 806d 53bc
00000200: ee26 4c3d 06e2 0cbe 9844 bab8 a138 f23d
00000210: e44d 903e f064 603e 5e0d 153d f62d d93d
00000220: 0245 423e a851 b93e 8539 7f3e 4205 143e
00000230: 6a86 dabb b9e5 793e 78e6 443e 2f10 823e
00000240: 5d93 133e 5c65 023d c279 883d 1adf 5d3e
00000250: a689 753e 86ce 223d aa52 d73e 1349 d43e
00000260: 207b b63e 3643 b93e 9711 e33e c03b 423e
00000270: c597 733e 7de4 7d3e 87fa ab3e d08c ab3e
00000280: 2e02 a63d 2340 cf3c 273e 4f3c 7472 b53d
00000290: c6d8 0b3e 30e5 3abd 1e0c 45bd e912 a2bd
000002a0: c2e2 e03b 00f0 3ebd 9370 dcbe 451d c2be
000002b0: 6279 a6be 1c28 a2be 2d99 b3be 7996 bf3d
000002c0: db3d 723d 444d 56be 8b47 3abe 6a7f 70be
000002d0: 1ab8 16be 6fb6 1bbe bb36 a5be 5aa1 abbe
000002e0: b13e 3fbe 7cc5 26be 0eb8 bebd 58e9 9fbe
000002f0: b0bd 73be e63c 21be 7747 e3bd 7ea0 b2bd
00000300: e158 8cbe c7a4 efbd 5b0d c3bc a94b c73d
00000310: b090 b63d b1c0 fabd 7b73 10be caa7 1a3d
00000320: 5d47 4e3e 0656 0f3d 5abf 213d f23b c3bd
00000330: b2d5 3abe d63b 423d 1f42 84bd 18f2 40be
00000340: dc1e 81be bf72 7dbe 99f9 a23d 1aae fabc
00000350: 14b2 0fbe 6cd0 77be 4d98 42be 6030 6f3e
00000360: 5227 963e 1372 3c3e 57bc 4b3d b5d9 fc3d
00000370: a4ac b83e 576c a63e a59a 493e 72da 3c3e
00000380: e79b 1a3e fb42 333c fb56 3ebe 506e c4bd
00000390: af96 0f3d e42a 493e 5203 343e 802c 3fbd
000003a0: d685 a8be d306 9dbe 5774 c53e 39ca 073e
000003b0: 52bd 9d3e ef7e ebbe 43ae b3be b5d2 943e
000003c0: bbf7 eebc 8474 903e 90fc 65bd 4522 febe
000003d0: 2cc7 163e e810 95bd 01d6 193e d658 933d
000003e0: 3e94 3bbe 3839 69bd 497c 883d d9f2 0abd
000003f0: fa5a 3ebd eb4b c0bd 1077 553e d0d1 803e

conv1.bias f4 [6]
-0.5528197 0.15398479 -0.52802455 -0.33500588 -0.45764464 -0.41053236
00000000: 9885 0dbf 30ae 1d3e 9e2c 07bf e485 abbe
00000010: 6650 eabe 4c31 d2be

conv2.weight f4 [12, 6, 5, 5]
0.014855073 0.0728327 -0.076134406 -0.07197635 -0.054682318 0.009771975 -0.014599956 -0.03770742
0.0696339 0.090370856 0.009125714 0.12194277 0.15569359 0.03662055 0.1143098 -0.0007437211
0.12130372 0.0020616879 0.113377854 0.1463568 0.12195838 0.0559618 0.023131661 0.05482386
0.050665714 -0.02761585 -0.04045315 -0.006905695 0.010102719 -0.038548034 -0.0467112 0.02997136
-0.054714255 0.0024541891 0.084798865 -0.06260834 -0.036352772 0.03833752 -0.03262121 0.13585821
0.013542901 -0.018733092 -0.05250061 0.033674315 0.10547282 -0.0892231 0.008177463 -0.049668998
-0.13992251 0.024747903 0.0170917 0.021274928 0.03949451 0.033633664 -0.057160266 0.047595665
0.12810944 0.017532956 0.014875407 -0.018883958 -0.012077924 0.052885197 0.08990466 -0.065893196
-0.03218178 -0.058055155 -0.11296346 -0.12439075 -0.16763309 -0.05053272 0.0030027279 -0.1367768
-0.003373229 0.0021924535 -0.12493314 0.13269836 0.043369774 0.09025894 -0.03333448 0.0041208263
0.09007185 0.0005464037 -0.06805702 -0.055373795 0.017127315 0.083174765 -0.04183805 -0.08521224
-0.09469176 0.014657859 -0.043726988 -0.14853045 -0.12758727 0.03817952 -0.008996738 0.14209557
-0.049032338 0.045085937 -0.06451818 0.06321844 0.03353313 -0.04403865 -0.055340167 -0.02771583
0.0273603 0.011542667 -0.045110732 -0.010094288 0.08213054 0.042133514 0.116573796 0.030750217
0.06645605 0.017552454 0.17542855 0.039448548 0.024314819 -0.03099865 0.04226614 0.21494424
0.04886845 0.09890505 -0.020725409 0.12296847 0.092602685 -0.09160572 -0.0076857107 -0.06842609
-0.11107481 -0.051358167 -0.16638494 -0.09945066 -0.22614333 -0.1820087 -0.07604074 -0.24601953
-0.16086261 -0.21671468 -0.2381127 -0.20999631 -0.18711126 -0.23766428 -0.31226698 -0.394556
-0.27967882 -0.15081164 -0.2682319 -0.27740455 -0.3077829 -0.22806782 0.044234123 0.012918721
0.048722718 -0.057408128 0.0009816526 0.17599042 0.030397233 -0.08907432 -0.16419615 -0.19673234
0.13376786 -0.043227173 -0.045261126 -0.2272914 -0.32621163 0.045915995 -0.027517337 -0.047937278
-0.17073813 -0.19943483 -0.014755988 -0.09022408 -0.0103118345 -0.10587815 -0.15639687 0.092427015
-0.10689412 -0.018222513 -0.08094553 -0.039249394 0.07426332 -0.02528272 -0.031479117 -0.019161465
0.05754051 -0.0052029546 -0.11223825 -0.051226474 0.12513758 0.13310735 0.09181975 -0.059828527
-0.08800326 0.040206295 0.11302213 0.021615569 0.01073205 -0.012207142 -0.090028465 0.041379955
0.22231863 0.15641066 -0.090362094 -0.21144494 -0.21193539 0.11009318 0.0692773 -0.15084836
-0.25243846 -0.08762097 0.1046502 -0.011619291 -0.11447963 -0.09862033 -0.072637 0.05540123
-0.13629794 -0.103508644 -0.015673112 0.0419827 0.07391691 -0.13370156 -0.09206691 -0.10607869
-0.028192027 -0.044434134 -0.021161988 -0.18355575 -0.2404607 -0.0744537 -0.0011274322 0.06300185
-0.12281238 -0.25767952 -0.22440943 -0.0008022659 0.10886434 -0.06909585 -0.2522017 -0.22405046
0.062388916 -0.07446873 0.0025266472 -0.0045774896 -0.04161443 0.040721703 -0.004837883 -0.06435231
0.088413976 0.105101556 0.18524331 -0.02449717 -0.08500898 -0.24685776 -0.26072517 0.12540029
00000000: b162 733c 5029 953d 5bec 9bbd 5668 93bd
00000010: 91fa 5fbd a21a 203c a734 6fbc 1873 1abd
00000020: 389c 8e3d 5b14 b93d 0584 153c 22bd f93d
00000030: 246e 1f3e 6eff 153d 421b ea3d 47f6 42ba
00000040: 166e f83d 621d 073b a632 e83d 8fde 153e
00000050: 51c5 f93d 3338 653d 9c7e bd3c fc8e 603d
00000060: da86 4f3d a33a e2bc 34b2 25bd 2b49 e2bb
00000070: e085 253c 8be4 1dbd 3e54 3fbd 7f86 f53c
00000080: 0e1c 60bd 76d6 203b 07ab ad3d cd38 80bd
00000090: a5e6 14bd ce07 1d3d d19d 05bd 6a1e 0b3e
000000a0: 0be3 5d3c 2476 99bc e10a 57bd 14ee 093d
000000b0: 2202 d83d 9aba b6bd c4fa 053c b871 4bbd
000000c0: d947 0fbe 1dbc ca3c e503 8c3c c248 ae3c
000000d0: ffc4 213d 74c3 093d e220 6abd acf3 423d
000000e0: 1f2f 033e 46a1 8f3c fbb7 733c 88b2 9abc
000000f0: 7ce2 45bc 269e 583d ef1f b83d 03f3 86bd
00000100: 0bd1 03bd 3ecb 6dbd 6359 e7bd 94c0 febd
00000110: 02a8 2bbe 66fb 4ebd 6ac9 443b 380f 0cbe
00000120: 6411 5dbb 44af 0f3b f2dc ffbd 14e2 073e
00000130: 81a4 313d aed9 b83d bc89 08bd ff07 873b
00000140: 9777 b83d 883c 0f3a 7b61 8bbd a2cf 62bd
00000150: 954e 8c3c 8857 aa3d 605e 2bbd c183 aebd
00000160: c1ed c1bd 8427 703c 121b 33bd 5e18 18be
00000170: 3da6 02be 2162 1c3d 0e67 13bc 8081 113e
00000180: 22d6 48bd 08ac 383d 1c22 84bd ab78 813d
00000190: 095a 093d df61 34bd 5fac 62bd 4f0c e3bc
000001a0: b522 e03c 741d 3d3c 08c6 38bd 8362 25bc
000001b0: 0e34 a83d 3194 2c3d 3ebe ee3d e1e7 fb3c
000001c0: 1c1a 883d 2aca 8f3c 8ba3 333e cd94 213d
000001d0: df2f c73c e1f0 fdbc 431f 2d3d 581a 5c3e
000001e0: 492a 483d bb8e ca3d 55c8 a9bc e5d6 fb3d
000001f0: 7aa6 bd3d c89b bbbd 6ad8 fbbb fa22 8cbd
00000200: 317b e3bd f15c 52bd d060 2abe caac cbbd
00000210: 1e92 67be 7d60 3abe 3fbb 9bbd 8bec 7bbe
00000220: 2bb9 24be 74ea 5dbe d1d3 73be 4609 57be
00000230: 189a 3fbe 445e 73be 75e1 9fbe 3e03 cabe
00000240: 1032 8fbe 5e6e 1abe b155 89be f807 8ebe
00000250: b895 9dbe 9c8a 69be d72e 353d 0ba9 533c
00000260: 7991 473d c924 6bbd ccaa 803a d536 343e
00000270: 9e03 f93c 996c b6bd 0923 28be 3474 49be
00000280: 71fa 083e fa0e 31bd bb63 39bd 14bf 68be
00000290: 3605 a7be 6912 3c3d 0a6c e1bc e159 44bd
000002a0: fad5 2ebe a538 4cbe 19c3 71bc 67c7 b8bd
000002b0: f8f2 28bc a5d6 d8bd 8026 20be 604a bd3d
000002c0: 4eeb dabd 6147 95bc c5c6 a5bd f9c3 20bd
000002d0: 5e17 983d b51d cfbc 3ff0 00bd 81f8 9cbc
000002e0: 99af 6b3d 8c7d aabb 2bdd e5bd dad2 51bd
000002f0: 1124 003e 4b4d 083e fe0b bc3d c20e 75bd
00000300: 0e3b b4bd 5baf 243d 2678 e73d 2213 b13c
00000310: 7bd5 2f3c 7700 48bc d860 b8bd 077e 293d
00000320: 7fa7 633e 1e2a 203e c30f b9bd 0685 58be
00000330: 9705 59be 8878 e13d 42e1 8d3d fe77 1abe
00000340: 9d3f 81be a072 b3bd d852 d63d d75e 3ebc
00000350: 4c74 eabd 75f9 c9bd b5c2 94bd 66ec 623d
00000360: b091 0bbe 57fc d3bd e664 80bc 0df6 2b3d
00000370: c061 973d 10e9 08be 938d bcbd c93f d9bd
00000380: f7f2 e6bc 9100 36bd e85b adbc 0af6 3bbe
00000390: 543b 76be 2e7b 98bd 59c6 93ba 1d07 813d
000003a0: 0f85 fbbd 92ee 83be 96cb 65be 274f 52ba
000003b0: 44f4 de3d 2082 8dbd 9520 81be 7c6d 65be
000003c0: 858b 7f3d 1083 98bd 1b96 253b c4fe 95bb
000003d0: e473 2abd cdcb 263d 1b87 9ebb 25cb 83bd
000003e0: 6312 b53d 7c3f d73d 6cb0 3d3e 4aae c8bc
000003f0: 3019 aebd 48c8 7cbe c57d 85be ef68 003e

conv2.bias f4 [12]
0.9947876 0.50239307 0.9382553 -0.07245944 0.27850604 0.2814351 -0.16238162 0.83550966
0.27340814 -0.003888945 -0.09257416 -0.51794326
00000000: 66aa 7e3f d59c 003f 8031 703f 9d65 94bd
00000010: 5898 8e3e 4318 903e 5e47 26be f6e3 553f
00000020: 27fc 8b3e acdd 7ebb 8597 bdbd ee97 04bf

fully_connected1.weight f4 [120, 1200]
-0.02563559 -0.03259786 -0.00225989 -0.020017283 -0.018316533 0.007878224 -0.024632461 -0.009262568
0.010155645 -0.013444635 -0.028732106 0.00025703237 0.038304586 0.01072808 0.03430947 0.02905133
0.0064460183 -0.0030734309 -0.0007210414 -0.0107835885 0.02266232 0.022317577 0.04204434 0.021454068
-0.019101394 -0.012022739 0.018924918 0.031180387 -0.020572895 -0.020318137 0.022560228 0.009027617
0.048814215 0.016416192 -0.0140510835 -0.0077732615 0.01846469 -0.01861405 -0.014731878 -0.01979344
0.058188133 0.044102956 0.013882008 -0.008688821 -0.028343992 0.025037438 -0.030663546 0.011743249
-0.026683683 0.01367262 0.047827158 -0.0051303213 0.038255963 0.006324095 -0.0039948877 -0.026800811
-0.0185108 -0.024802385 0.024978328 0.045004137 0.0044971043 0.04776269 0.01849138 0.010829434
-0.025575371 -0.015286802 -0.026137143 0.019335065 0.01061744 0.009717179 0.025483666 -0.0034269525
-0.00725147 -0.018449876 -0.01907534 0.01361418 -0.03316613 -0.019339565 -0.015122906 0.026823498
0.036847163 -0.01101663 -0.021383343 -0.023097144 -0.03988098 -0.016236166 -0.05799353 -0.04598932
-0.007438643 0.03173037 -0.032132413 -0.041700236 -0.0076247943 -0.045404714 -0.048828926 -0.05848983
-0.039486747 -0.026980488 -0.015664864 0.049425643 0.031406052 0.01049904 0.03171902 -0.008572617
0.024768978 -0.0067392383 -0.017832419 0.010599397 -0.0018379322 0.001023364 0.011355936 -0.008899968
0.0031434607 0.004905792 -0.0033236695 -0.016453108 -0.0525401 0.018903002 0.024742126 0.048102774
0.03656118 -0.019645447 -0.009312508 0.007256075 0.03368775 0.023990752 -0.034644164 -0.012103295
-0.0010604878 0.038226083 -0.0024590872 0.0005029624 0.04194317 0.028037917 0.03942182 -0.0071670813
-0.0026242186 0.013983548 -0.008846911 0.035173737 -0.0016199716 -0.01429617 -0.0026407505 0.006900971
0.019876594 0.035053194 -0.013325026 -0.023522988 -0.0021501328 0.05019082 0.017005075 -0.0048784153
-0.01616743 0.025649924 0.030056413 0.017747797 0.01855333 0.024681496 -0.0069506397 0.04176602
-0.04358831 -0.024907993 0.010230889 0.0011044464 0.029208923 -0.0059540616 -0.024471426 0.012755492
0.014771985 0.009105677 -0.019278435 0.003786478 -0.016487595 0.019999642 0.023053085 0.037944052
0.019504305 -0.010282927 -0.03811847 -0.018166414 -0.032469742 -0.051607516 -0.029258884 -0.04152604
0.036207855 0.00365607 0.0105537055 0.005287725 0.0101185115 -0.025574047 -0.031359203 -0.001777167
-0.0052271076 -0.024966653 -0.029168846 -0.004515598 0.0049373233 0.00836371 -0.0018210037 -0.009214687
0.018831322 -0.0119542545 -0.038874306 -0.032914534 -0.009198973 -0.039516844 -0.038314544 -0.0054139337
-0.0051874067 -0.046844024 -0.0019211278 -0.0041999384 0.006175534 -0.005591771 0.00028973003 -0.0046361377
-0.02410891 0.008241013 -0.012614522 0.0074693635 -0.0039525656 -0.013246196 0.016256768 0.02318488
0.0021042202 -0.016065512 0.007917016 0.015052544 0.030032817 0.03826566 -0.0016993697 0.04191288
0.03002236 -0.012940758 -0.03636239 0.010610554 0.0030479394 -0.022437025 0.0189957 0.022309095
0.016831012 0.0073476154 -0.002962322 -0.02732822 -0.0118589355 -0.00986422 0.009052839 0.02880086
0.0021600206 0.007614232 0.020854738 -0.012831035 0.0077428003 0.0042844447 0.010377377 -0.00075352093
00000000: bb01 d2bc 5585 05bd aa1a 14bb 49fb a3bc
00000010: 8e0c 96bc ab13 013c 04ca c9bc 07c2 17bc
00000020: dd63 263c e346 5cbc 985f ebbc 4dc2 8639
00000030: 45e5 1c3d d4c4 2f3c 1688 0c3d 0efd ed3c
00000040: 1f39 d33b 9d6b 49bb 4504 3dba a6ad 30bc
00000050: 54a6 b93c 5ad3 b63c b036 2c3d 71c0 af3c
00000060: 877a 9cbc 06fb 44bc 6e08 9b3c 036e ff3c
00000070: 7d88 a8bc 3972 a6bc 3ad0 b83c 92e8 133c
00000080: 6af1 473d 407b 863c 8436 66bc d8b6 febb
00000090: 4343 973c 7e7c 98bc fa5d 71bc da25 a2bc
000000a0: ae56 6e3d 4da5 343d 5d71 633c 8f5b 0ebc
000000b0: a931 e8bc 501b cd3c 1e32 fbbc c266 403c
000000c0: bd97 dabc 2003 603c 69e6 433d 411c a8bb
000000d0: 49b2 1c3d 5b3a cf3b 8ce7 82bb 608d dbbc
000000e0: f6a3 97bc 5f2e cbbc 5a9f cc3c 4256 383d
000000f0: 725c 933b cfa2 433d 3c7b 973c f06d 313c
00000100: 7183 d1bc 7f75 7abc 901d d6bc 9264 9e3c
00000110: c5f4 2d3c ce34 1f3c 1fc3 d03c b996 60bb
00000120: bd9d edbb 3224 97bc e343 9cbc 020e 5f3c
00000130: 35d9 07bd 026e 9ebc 11c6 77bc f4bc db3c
00000140: 0ded 163d 187f 34bc 1f2c afbc 3936 bdbc
00000150: 3d5a 23bd b501 85bc a08a 6dbd 4c5f 3cbd
00000160: dcbf f3bb b4f7 013d 479d 03bd decd 2abd
00000170: 69d9 f9bb 4bfa 39bd d700 48bd 0893 6fbd
00000180: dbbc 21bd 2f06 ddbc 9a53 80bc 8b72 4a3d
00000190: a2a3 003d 2a04 2c3c ceeb 013d 2974 0cbc
000001a0: 50e8 ca3c d4d4 dcbb 4b15 92bc 18a9 2d3c
000001b0: c5e6 f0ba 6622 863a 3f0e 3a3c 2cd1 11bc
000001c0: 8502 4e3b c4c0 a03b ecd1 59bb abc8 86bc
000001d0: 4a34 57bd 78da 9a3c 00b0 ca3c 6a07 453d
000001e0: 2dc1 153d 7def a0bc 7d93 18bc 5ec4 ed3b
000001f0: 2bfc 093d 4188 c43c 0ae7 0dbd e64c 46bc
00000200: 1100 8bba f492 1c3d a328 21bb 3cd9 033a
00000210: 9acc 2b3d c6af e53c c678 213d d6d9 eabb
00000220: 15fb 2bbb 401b 653c a2f2 10bc 5612 103d
00000230: 3a55 d4ba 7c3a 6abc 7110 2dbb 8a21 e23b
00000240: 3dd4 a23c f093 0f3d 3651 5abc 48b3 c0bc
00000250: 3ee9 0cbb e494 4d3d 3a4e 8b3c 1ddb 9fbb
00000260: 8f71 84bc ca1f d23c de38 f63c d463 913c
00000270: 27fd 973c d930 ca3c 31c2 e3bb d912 2b3d
00000280: a889 32bd d90b ccbc 759f 273c 12c3 903a
00000290: 8d47 ef3c 4a1a c3bb 4d78 c8bc 69fc 503c
000002a0: 3206 723c fa2f 153c cfed 9dbc 8f26 783b
000002b0: fe10 87bc 4ad6 a33c d3d9 bc3c 396b 1b3d
000002c0: 7ec7 9f3c b979 28bc 1d22 1cbd bbd1 94bc
000002d0: fefe 04bd 6762 53bd 54b0 efbc 3517 2abd
000002e0: b04e 143d ad9a 6f3b 73e9 2c3c a744 ad3b
000002f0: 1dc8 253c aa80 d1bc 8272 00bd d4ef e8ba
00000300: 2848 abbb de86 ccbc 81f3 eebc 95f7 93bb
00000310: 45c9 a13b f107 093c bfae eeba 33f9 16bc
00000320: 2544 9a3c c7db 43bc aa3a 1fbd 64d1 06bd
00000330: 4ab7 16bc 6adc 21bd b6ef 1cbd 5e67 b1bb
00000340: 1ffb a9bb 85df 3fbd 5ace fbba a39f 89bb
00000350: 225c ca3b 2d3b b7bb e8e6 9739 beea 97bb
00000360: 0c80 c5bc 5005 073c 24ad 4ebc 90c1 f43b
00000370: 8684 81bb 9306 59bc ea2c 853c 38ee bd3c
00000380: f5e6 093b d29b 83bc 5fb6 013c f29e 763c
00000390: 6207 f63c 74bc 1c3d 63bd deba d7ac 2b3d
000003a0: 74f1 f53c 7905 54bc bbf0 14bd e4d7 2d3c
000003b0: f0bf 473b dacd b7bc df9c 9b3c 90c1 b63c
000003c0: 31e1 893c 44c4 f03b 8423 42bb 6edf dfbc
000003d0: fb4b 42bc 8a9d 21bc 5c52 143c c8ef eb3c
000003e0: 228f 0d3b cf80 f93b 8ed7 aa3c 4339 52bc
000003f0: 51b7 fd3b 8764 8c3b e005 2a3c ef87 45ba

fully_connected1.bias f4 [120]
0.009623557 0.11632378 -0.0062323436 0.064870335 -0.0022643635 0.063721254 -0.072531104 -0.025576487
0.12404759 0.08412041 -0.08642196 -0.037407294 0.0015563107 -0.09785395 0.051564135 -0.07440586
-0.11678295 -0.05742062 0.024008173 -0.042780485 0.03983421 -0.04591524 0.16150607 0.045065366
0.028817615 -0.056049947 -0.098630756 -0.019378666 -0.11045906 -0.07355847 0.058569394 -0.059092693
-0.0064262063 -0.047383696 0.13115984 -0.07116595 0.00555687 -0.031610735 0.17107348 0.0024167276
-0.03641909 0.04646573 0.012215972 -0.028863648 -0.032966327 0.11062858 0.02880367 0.08248957
0.044370357 -0.0633102 0.07821204 0.14016268 0.08778986 0.03796427 0.09620677 0.11284259
0.0024692244 -0.014166758 -0.015799606 -0.0971611 -0.10022172 0.032225277 -0.097085774 -0.1117962
0.038141917 -0.053833067 0.0673624 -0.10071247 0.048196092 0.07702229 0.013746647 0.0268396
-0.060905434 0.021610431 0.072401635 0.026841315 0.0072163646 0.03832196 0.005240435 -0.06820427
-0.11337833 0.037656058 -0.09220234 0.01998257 0.02414885 -0.015349669 -0.0752514 0.059724044
0.026502755 0.0432558 0.08355681 0.03322684 -0.02357193 0.04888123 0.015245944 0.024889957
0.029020937 0.08599846 0.012003355 0.015002099 -0.09702861 -0.07796482 -0.063615374 0.040897597
0.03891773 -0.05262015 -0.037476584 -0.076593354 0.08922429 0.15569952 -0.13205151 -0.021783583
-0.008985837 0.033137828 -0.02167873 0.051994864 -0.04695971 -0.05011299 0.1520122 0.026272237
00000000: 20ac 1d3c 293b ee3d b038 ccbb bdda 843d
00000010: b765 14bb 4a80 823d 308b 94bd c885 d1bc
00000020: aa0c fe3d 5247 ac3d fffd b0bd 6438 19bd
00000030: 1ffd cb3a a767 c8bd ea34 533d 1962 98bd
00000040: e62b efbd e231 6bbd caac c43c 973a 2fbd
00000050: 3229 233d 9e11 3cbd d961 253e 7696 383d
00000060: eb12 ec3c a194 65bd ecfe c9bd 02c0 9ebc
00000070: 5c38 e2bd d3a5 96bd 76e6 6f3d 2e0b 72bd
00000080: ed92 d2bb 6815 42bd c44e 063e 74bf 91bd
00000090: 6716 b63b 427a 01bd e32d 2f3e f661 1e3b
000000a0: 2f2c 15bd d952 3e3d 8025 483c 7573 ecbc
000000b0: b307 07bd 3d91 e23d adf5 eb3c 4bf0 a83d
000000c0: b1bd 353d c7a8 81bd a22d a03d ce86 0f3e
000000d0: 2ccb b33d 6c80 1b3d 0e08 c53d 041a e73d
000000e0: b6d2 213b b11b 68bc 2d6e 81bc 66fc c6bd
000000f0: 0c41 cdbd a7fe 033d e8d4 c6bd 68f5 e4bd
00000100: b33a 1c3d 1080 5cbd 4cf5 893d 5742 cebd
00000110: 4469 453d ddbd 9d3d 9e39 613c b9de db3c
00000120: fa77 79bd 5c08 b13c 4f47 943d 51e2 db3c
00000130: 4177 ec3b 7df7 1c3d f4b7 ab3b aeae 8bbd
00000140: e632 e8bd 3d3d 1a3d 95d4 bcbd 7db2 a33c
00000150: cfd3 c53c 2e7d 7bbc 681d 9abd 33a1 743d
00000160: 4e1c d93c fe2c 313d d51f ab3d de18 083d
00000170: ec19 c1bc af37 483d 20ca 793c 06e6 cb3c
00000180: 51bd ed3c f61f b03d b8a9 443c 5dcb 753c
00000190: f0b6 c6bd 05ac 9fbd c748 82bd 3d84 273d
000001a0: 3368 1f3d 3a88 57bd 0c81 19bd fadc 9cbd
000001b0: 39bb b63d b26f 1f3e 8338 07be 7c73 b2bc
000001c0: 5539 13bc 88bb 073d 9897 b1bc 91f8 543d
000001d0: d358 40bd 4743 4dbd 16a9 1b3e e038 d73c

fully_connected2.weight f4 [10, 120]
-0.0845126 -0.068923414 0.036786858 0.048762273 0.0137701435 -0.001184622 0.06962152 0.055677965
-0.090608984 -0.029293211 0.09402684 0.020320745 -0.019680558 0.08407948 0.0540874 0.12559128
0.119891286 0.011795421 -0.100920185 -0.003930094 0.06513012 0.018111838 -0.08628516 0.023859361
-0.053866584 0.0793015 0.040352076 -0.028801722 0.08063946 -0.013052895 -0.018743724 0.07966514
0.026013777 -0.018821692 -0.09462819 0.005488676 -0.06317234 -0.039126325 -0.14175369 0.03872379
0.026389929 -0.06437822 -0.061986838 0.060926378 0.039702043 -0.059166837 -0.0050741304 -0.12978292
-0.052987695 0.046779584 -0.041567974 -0.07737 0.0040076515 -0.058521993 0.04558961 -0.09334066
-0.03533592 0.02804832 -0.045071427 0.058183588 0.07331672 0.05002778 0.044837017 0.07363651
0.015799208 -0.06392882 0.005295747 0.056008883 0.0028102314 -0.062351298 -0.018578004 -0.02024559
-0.0027992604 0.04664999 0.024392024 -0.03072595 0.019039985 -0.035615504 0.045586035 0.1038516
0.050982405 -0.016852744 0.018097633 0.021529239 -0.059288 -0.0031393007 0.046642613 -0.06626309
0.043418046 -0.029484846 -0.09910117 -0.013231927 -0.06068724 -0.12833117 -0.024139814 0.0973126
0.0049046823 -0.049868234 -0.007061334 -0.027496913 0.05411124 -0.0001478481 0.02283824 0.012972688
-0.0016302004 0.103856646 -0.024996184 -0.011074922 -0.052325763 -0.1300458 0.14182286 -0.1205197
0.110743344 -0.018584196 0.06878715 -0.055143796 -0.0779056 0.076212935 -0.033562094 -0.11365702
-0.11693293 -0.067613065 -0.035615683 0.07379338 -0.009176513 0.0785897 0.01826992 -0.01482723
-0.1279018 0.058135957 0.12153912 0.10385296 0.0017296614 -0.0768771 -0.0033695088 -0.059991084
0.072635025 -0.10732651 -0.08407383 0.03202924 0.048919804 0.0109241875 0.1096566 0.121980995
-0.044019792 -0.019943237 0.029157223 0.012251458 0.063018456 0.043105945 -0.06904056 -0.07461191
-0.056692097 -0.06097891 0.13993219 0.09799194 -0.0048888824 -0.020135239 -0.0019508721 -0.114714704
-0.08464251 -0.09654014 -0.01626739 -0.071291074 0.17496167 -0.0073549044 -0.057190493 -0.061259013
-0.020232106 -0.15656921 -0.093476385 0.000130113 0.026699537 -0.05460464 0.014361677 0.010936021
-0.056877803 -0.009086427 0.0057032057 0.012217136 -0.056940775 0.1307379 0.0045378744 0.022799337
-0.077540234 0.005188929 0.08364375 -0.062026255 -0.0074214777 0.04473525 -0.09858354 0.061960816
-0.10403301 0.15615967 0.03173196 0.043961283 0.038894694 0.032573458 -0.030747646 0.05641837
-0.024895668 -0.08416947 -0.060056332 0.08383228 -0.015674483 -0.17959498 0.119252644 0.12380109
-9.817491e-05 -0.05137321 -0.005580534 -0.011262678 -0.021221813 -0.027834393 0.084862195 -0.04066903
-0.07259654 -0.10615366 0.03474506 0.07794811 0.04341482 -0.15704408 -0.1536197 0.08050699
0.035108183 -0.034902584 0.0727043 0.023375908 0.08264675 0.008812837 0.028708683 -0.14629161
0.08339387 0.052915283 -0.10539011 -0.06638142 0.0075059664 0.10158775 0.07825377 -0.029930491
0.06282518 -0.03553867 0.043282226 -0.029309325 -0.023018004 0.014900299 -0.064229585 0.0036474762
-0.091505654 -0.009745567 0.032237496 -0.080426626 0.016581487 0.02142151 -0.024138682 0.06922346
00000000: f114 adbd b827 8dbd d1ad 163d f3ba 473d
00000010: 2b9c 613c 5145 9bba ba95 8e3d 940e 643d
00000020: 3491 b9bd 51f8 efbc 2591 c03d b177 a63c
00000030: 1f39 a1bc dd31 ac3d c08a 5d3d 009b 003e
00000040: 9089 f53d 9541 413c 3eaf cebd 05c8 80bb
00000050: f162 853d 475f 943c 46b6 b0bd b574 c33c
00000060: 35a3 5cbd d368 a23d 3848 253d 97f1 ebbc
00000070: 4d26 a53d cfdb 55bc 708c 99bc 7a27 a33d
00000080: d81a d53c f32f 9abc 6dcc c1bd 5ada b33b
00000090: 8060 81bd ed42 20bd e127 11be d69c 1e3d
000000a0: b12f d83c bad8 83bd e9e5 7dbd f08d 793d
000000b0: 9c9e 223d ed58 72bd e444 a6bb d0e5 04be
000000c0: a009 59bd f39b 3f3d 2e43 2abd 2a74 9ebd
000000d0: 9e52 833b c2b4 6fbd 2cbc 3a3d 6329 bfbd
000000e0: 66bc 10bd 97c5 e53c d19c 38bd ea51 6e3d
000000f0: 1427 963d eee9 4c3d 05a7 373d bdce 963d
00000100: 576d 813c 1ded 82bd f287 ad3b 9269 653d
00000110: dc2b 383b 1364 7fbd e630 98bc 14da a5bc
00000120: cc73 37bb 0f14 3f3d c8d1 c73c fdb4 fbbc
00000130: bef9 9b3c 90e1 11bd 6cb8 3a3d 26b0 d43d
00000140: edd2 503d c40e 8abc 7d41 943c 165e b03c
00000150: f9d7 72bd babc 4dbb 530c 3f3d f1b4 87bd
00000160: 1fd7 313d 348a f1bc 8ef5 cabd b9ca 58bc
00000170: 2f93 78bd 3f69 03be dcc0 c5bc d44b c73d
00000180: 75b7 a03b a242 4cbd c362 e7bb 3541 e1bc
00000190: bfa3 5d3d ac07 1bb9 4317 bb3c 668b 543c
000001a0: 73ac d5ba cbb2 d43d ccc4 ccbc 9773 35bc
000001b0: 8a53 56bd ba2a 05be 033a 113e 08d3 f6bd
000001c0: 68cd e23d e23d 98bc 47e0 8c3d 76de 61bd
000001d0: f98c 9fbd 8715 9c3d 6878 09bd 03c5 e8bd
000001e0: 887a efbd b878 8abd c0e1 11bd fc20 973d
000001f0: 1659 16bc a3f3 a03d cdaa 953c e9ed 72bc
00000200: b1f8 02be f81f 6e3d 81e9 f83d dcb0 d43d
00000210: ceb5 e23a be71 9dbd fad2 5cbb 36b9 75bd
00000220: acc1 943d 00ce dbbd e62e acbd 1831 033d
00000230: 2260 483d 5dfb 323c a493 e03d 2cd1 f93d
00000240: 194e 34bd 0060 a3bc 21db ee3c 57ba 483c
00000250: d20f 813d dc8f 303d 2365 8dbd 21ce 98bd
00000260: f935 68bd 06c5 79bd 624a 0f3e 00b0 c83d
00000270: eb32 a0bb a8f2 a4bc 68b4 ffba 8bef eabd
00000280: 0d59 adbd d6b6 c5bd 3143 85bc 0e01 92bd
00000290: 2729 333e 6901 f1bb 9440 6abd bbea 7abd
000002a0: cdbd a5bc ae53 20be 8c70 bfbd f16e 0839
000002b0: fdb8 da3c 1da9 5fbd 3d4d 6b3c ff2c 333c
000002c0: b3f8 68bd 3ddf 14bc f5e1 ba3b 622a 483c
000002d0: bb3a 69bd 28e0 053e 73b2 943b adc5 ba3c
000002e0: 6acd 9ebd e407 aa3b 6a4d ab3d 3e0f 7ebd
000002f0: de2f f3bb 4f3c 373d 2be6 c9bd a0ca 7d3d
00000300: 420f d5bd 52e8 1f3e 5ff9 013d bf10 343d
00000310: 0b50 1f3d bf6b 053d 7de2 fbbc f316 673d
00000320: 00f2 cbbc 0b61 acbd a1fd 75bd 42b0 ab3d
00000330: c667 80bc bfe7 37be bb3a f43d 6d8b fd3d
00000340: 41e3 cdb8 b76c 52bd eadc b6bb 1887 38bc
00000350: 5ed9 adbc f404 e4bc 3bcc ad3d 9294 26bd
00000360: 7fad 94bd 1767 d9bd d650 0e3d 42a3 9f3d
00000370: bdd3 313d 2ad0 20be 7c4e 1dbe d9e0 a43d
00000380: 99cd 0f3d 03f6 0ebd fee5 943d d57e bf3c
00000390: b342 a93d b863 103c 792e eb3c 78cd 15be
000003a0: 68ca aa3d b2bd 583d c5d6 d7bd fbf2 87bd
000003b0: 9cf4 f53b 3d0d d03d 8343 a03d ca30 f5bc
000003c0: 7daa 803d ff90 11bd b448 313d 1c1a f0bc
000003d0: 4190 bcbc 6220 743c cd8a 83bd 7f0a 6f3b
000003e0: 5167 bbbd dfab 1fbc 770b 043d b7b6 a4bd
000003f0: e6d5 873c 2a7c af3c 7cbe c5bc 08c5 8d3d

fully_connected2.bias f4 [10]
-0.3241679 -0.21352772 -0.21066648 0.39219216 0.12860522 -0.019790731 0.35215235 -0.23428027
0.10460185 0.19388011
00000000: 56f9 a5be 03a7 5abe f4b8 57be 69cd c83e
00000010: 16b1 033e 2c20 a2bc 504d b43e 2be7 6fbe
00000020: 7f39 d63d 8288 463e
