models/archive/simpleModel_testingw.pth (torch, 593263 bytes, 8 tensors)

conv1.weight f4 [6, 3, 5, 5]
0	0xbde7111e	-0.11282562
1	0xbdd9239b	-0.10602494
2	0xbd76141f	-0.060077783
3	0xbe0a5565	-0.13509138
4	0xbd24bf4b	-0.040221494
5	0xbe33e615	-0.17568238
6	0xbe596889	-0.21231283
7	0xbe5130aa	-0.2042872
8	0xbe63e346	-0.22254667
9	0xbe37c5fb	-0.17946617
10	0xbe419eef	-0.18908285
11	0xbe534f8b	-0.20635812
12	0xbdc68c13	-0.09694686
13	0xbe312b3b	-0.17301647
14	0xbe657d63	-0.22411112
15	0x3d4ec24f	0.050478276
16	0x3d737f18	0.059447378
17	0x3d984b18	0.07436198
18	0xbcdb165e	-0.026744064
19	0x3c15795e	0.0091231745
20	0x3df7c641	0.12098361
21	0x3da7d7f8	0.0819549
22	0x3cccd2a0	0.025002778
23	0x3db2bcae	0.08727394
24	0x3db308e7	0.08741932
25	0x3dc40d62	0.09572865
26	0x3b70f3d8	0.0036766436
27	0x3e4c1d45	0.1993304
28	0x3de73836	0.11290018
29	0x3ddf273f	0.108961575
30	0x3dcdb8cb	0.10045012
31	0x3d00669e	0.031347863
32	0xbcb1819a	-0.021668244
33	0xbd9bb061	-0.07602001
34	0x3b64826c	0.0034867777
35	0xbba9c6b1	-0.0051811566
36	0x39745f06	0.00023305052
37	0xbe2ade39	-0.16686334
38	0x3cf5167d	0.02991795
39	0xbd52d13d	-0.051469076
40	0x3caaadae	0.02083477
41	0xbb6bb358	-0.0035965052
42	0x3d07c4d1	0.033146683
43	0x3d518060	0.05114782
44	0xbda3451f	-0.07972168
45	0x3a887946	0.0010412119
46	0x3a6b0ca7	0.0008966424
47	0x3dcb38cb	0.09922942
48	0x3d02fbc8	0.0319784
49	0xbdb69eba	-0.089169934
50	0x3e5b3801	0.21408083
51	0x3e7d1a44	0.24717051
52	0x3e31a501	0.173481
53	0x3e689676	0.22713646
54	0x3e02fbca	0.12791362
55	0x3d4e89b0	0.050424278
56	0x3d5357d8	0.051597446
57	0xbca4b6c8	-0.020106688
58	0x3d7e0a1d	0.062021364
59	0xbd0e8948	-0.03479889
60	0xbc991fc6	-0.018691909
61	0xbd2d0379	-0.04223964
62	0xbdf40a9e	-0.119160876
63	0xbda5c963	-0.08095052
64	0x3d877496	0.06614034
65	0x3dcd60a8	0.10028201
66	0x3e061214	0.13092834
67	0x3dff72c6	0.12473063
68	0x3d99060e	0.07471858
69	0x3dc14e12	0.09438719
70	0x3dfdccb3	0.12392559
71	0x3d9174d3	0.071023606
72	0x3d566411	0.052341525
73	0xbd22ddce	-0.03976231
74	0x3d090861	0.033455256
75	0x3d9717d3	0.07377591
76	0x3e11fe8f	0.14257263
77	0x3df58852	0.11988892
78	0x3db4b1ab	0.0882295
79	0xbdc15443	-0.094399
80	0x3db8106b	0.089875065
81	0xbd063135	-0.03276177
82	0x3b6606b7	0.0035099217
83	0x3d887cfb	0.06664463
84	0xbdb06641	-0.086132534
85	0x3d2054d2	0.03914339
86	0x3c54c110	0.012985483
87	0xbda20adb	-0.07912227
88	0xbcda1baf	-0.026624529
89	0xbd253e64	-0.040342703
90	0x3dcb20e6	0.09918384
91	0xbd1fa1d7	-0.038972702
92	0xbd3e6b03	-0.046488773
93	0xbdbdf650	-0.09275496
94	0xbc9fde26	-0.019515108
95	0xbc8c0bf8	-0.01709555
96	0xbdc24a53	-0.094868325
97	0xbcd8f2d1	-0.026482971
98	0xbdba1c18	-0.0908739
99	0x3d93ea29	0.07222397
100	0xbe2ee5a2	-0.17079785
101	0xbde9f8bf	-0.11424398
102	0xbc97ec87	-0.018545402
103	0xbda46f23	-0.0802901
104	0xbd556dbd	-0.052106608
105	0xbdd80163	-0.105471395
106	0xbd72f756	-0.05931791
107	0x3d20fda5	0.039304394
108	0xba8fc39b	-0.0010968329
109	0xbdc55ffb	-0.096374474
110	0xbc330d9e	-0.01092854
111	0xbd781e76	-0.060575925
112	0xbe031fc8	-0.12805092
113	0xbe348d7e	-0.176321
114	0x3c0f49ef	0.0087456545
115	0xbd802716	-0.06257455
116	0xbc8e9f02	-0.017409805
117	0xbda534d2	-0.08066715
118	0xbcbe7abb	-0.023251882
119	0x3d76921f	0.060197946
120	0xbe37d178	-0.17951
121	0xbe6ded52	-0.23235062
122	0xbe04747c	-0.1293506
123	0x3c5178a2	0.012785109
124	0xbd74723f	-0.059679266
125	0x3d8e95de	0.06962179
126	0x3d25beac	0.040465042
127	0x3cdd067e	0.026980635
128	0xbe026a00	-0.12735748
129	0xbdf7c28a	-0.12097652
130	0x3d595ed8	0.053068966
131	0x3e152bf7	0.14567553
132	0xbd9f5c93	-0.07781329
133	0xbd82d912	-0.06389059
134	0xbcd77c86	-0.026304495
135	0x3d9cd3c3	0.07657578
136	0xbba2ca22	-0.0049679438
137	0xbd117a19	-0.035516832
138	0x3c99f477	0.018793328
139	0xbc7091ad	-0.014683169
140	0xbd84c9a0	-0.064837694
141	0x3d54bb6d	0.051936556
142	0x3a49385c	0.00076759397
143	0x3d37188c	0.044701144
144	0x3e54f823	0.20797782
145	0xbde94fc6	-0.11392169
146	0xbdb84f30	-0.08999479
147	0xb7698054	-1.3917761e-05
148	0x3a36438c	0.00069528143
149	0x3d9e7c04	0.07738498
150	0x3e57fcbf	0.21092509
151	0x3e68f968	0.22751391
152	0x3e8f8d45	0.28037468
153	0x3e880d48	0.26572633
154	0x3e67f847	0.22653304
155	0x3e51522b	0.20441501
156	0x3e4be230	0.19910502
157	0x3e556d88	0.20842564
158	0x3e4306d1	0.19045569
159	0xbc02bacf	-0.007979109
160	0xbd8154da	-0.06315012
161	0xbd86ce06	-0.065822646
162	0xbd769090	-0.06019646
163	0x3dd71209	0.10501487
164	0xbdb7dfe2	-0.08978249
165	0xbe19c136	-0.1501511
166	0xbd8d8c2e	-0.06911503
167	0xbdd29b20	-0.10283494
168	0xbda78205	-0.08179096
169	0xbd0d2c00	-0.03446579
170	0xbe0f1c43	-0.13975625
171	0xbe1a9e14	-0.15099365
172	0xbda1e5d2	-0.07905163
173	0xbe2652f4	-0.16242582
174	0xbdb9744e	-0.090553865
175	0x3e014f37	0.12627874
176	0xbc39098a	-0.011293778
177	0x3e66b81d	0.22531171
178	0x3d8d1989	0.06889636
179	0x3d9f0908	0.077653944
180	0x3d42d88d	0.0475698
181	0xbc105db1	-0.0088114
182	0xbd33a928	-0.04386249
183	0xbd70f5f1	-0.058828298
184	0xbdc77a71	-0.09740151
185	0xbcab7128	-0.02092798
186	0xbe855061	-0.26037887
187	0xbe6900f2	-0.22754267
188	0xbe492036	-0.19641194
189	0xbe24b82d	-0.16085882
190	0xbe464649	-0.19362749
191	0xbd9a83a2	-0.07544638
192	0xbe74ea15	-0.2391742
193	0xbe3bfcf2	-0.1835821
194	0x3adb093c	0.0016711126
195	0xbd24da77	-0.040247407
196	0xbd6ff85f	-0.058586475
197	0xbd7a2a3b	-0.06107543
198	0x3d354686	0.04425671
199	0xbdc78a5c	-0.09743187
200	0x3de1f1e3	0.11032464
201	0x3e1c11b9	0.15241136
202	0xbd188ba1	-0.037242536
203	0x3e180285	0.14844711
204	0xbdab065a	-0.08350821
205	0x3d30318f	0.043016013
206	0x3b1e6031	0.0024166221
207	0xbcc7898c	-0.02435758
208	0x3d5da5bf	0.054113146
209	0xbcfd5d0b	-0.030928155
210	0xbdbe7592	-0.092997685
211	0xbc5cd5fc	-0.013478752
212	0xbdfbac8b	-0.12288769
213	0xbd5c77a0	-0.05382502
214	0xbc802b4c	-0.015645646
215	0xbd4194de	-0.04726111
216	0xbdba8746	-0.091078326
217	0x3d4b1da2	0.049588807
218	0x3dcf4e19	0.10122318
219	0x3b245138	0.0025072824
220	0x3d7276ff	0.059195515
221	0x3d9a10f5	0.075227655
222	0xbd2a8604	-0.041631714
223	0x3dfefb6c	0.12450299
224	0x3d337647	0.04381397
225	0x3d654660	0.055975318
226	0x3da70cb0	0.08156717
227	0xbd715315	-0.058917124
228	0xbdaa909e	-0.08328365
229	0x3d1c10d8	0.038102
230	0x3d736289	0.059420142
231	0x3de5b1cf	0.11215555
232	0xbc0e0d4d	-0.008670163
233	0xbd8b32ab	-0.067967735
234	0xbc8a28f6	-0.016865235
235	0x3e04ef29	0.12981857
236	0x3e73f72a	0.23824754
237	0xbe7129f5	-0.23551162
238	0xbda4a48b	-0.080391966
239	0x3b8fa6cf	0.004383899
240	0x3e79d073	0.24395923
241	0x3e5aa5e9	0.21352352
242	0xbe672182	-0.22571376
243	0xbe24b3b4	-0.16084176
244	0xbc972448	-0.018449917
245	0x3e18c06b	0.14917152
246	0xbccedf0d	-0.025252843
247	0xbc98b670	-0.01864168
248	0xbe33a0f6	-0.1754187
249	0xbd98d996	-0.07463376
250	0x3d36eaba	0.044657446
251	0x3d8aa1c9	0.06769139
252	0xbd6bb14b	-0.057542127
253	0xbddd1b97	-0.10796278
254	0x3d878582	0.066172615
255	0x3e0dd97e	0.13852498

conv1.bias f4 [6]
0	0x3e775195	0.24152215
1	0x3ce651ac	0.028115116
2	0xbe01c798	-0.12673795
3	0xbd4a9d43	-0.049466383
4	0x3e76008a	0.24023643
5	0x3d8d2816	0.068924114

conv2.weight f4 [12, 6, 5, 5]
0	0x3d271441	0.0407908
1	0x3c0885b5	0.0083326595
2	0x3dd6e9cc	0.10493812
3	0xbced7111	-0.028984578
4	0x3d84b082	0.06478979
5	0x3a9f289c	0.001214284
6	0x3da8b55a	0.08237715
7	0xbce104b5	-0.027468065
8	0x3a962c10	0.0011457223
9	0x3dcb22cb	0.099187456
10	0x3d1ae937	0.037820067
11	0x3d380d07	0.0449343
12	0xbd4a5108	-0.049393684
13	0xbd002f49	-0.031295095
14	0xbd1f218a	-0.038850345
15	0x3d1038d5	0.03521045
16	0x3d48caaf	0.04902142
17	0xbd1375ff	-0.0360012
18	0xbd1ea85a	-0.03873477
19	0xbd57f49f	-0.052723523
20	0xbd01bb91	-0.031673018
21	0xbc9a6c43	-0.018850451
22	0x3c39ec81	0.011347891
23	0x3d2f496e	0.042794637
24	0xbd0425f4	-0.032262757
25	0x3d2cabfe	0.042156212
26	0xbd894575	-0.06702701
27	0xbcd41eaa	-0.025893528
28	0x3dac9a08	0.08427817
29	0xbd2e274a	-0.042517938
30	0xbd3e69df	-0.046487685
31	0xbd8ab41d	-0.06772635
32	0xba7eeabb	-0.00097243086
33	0xbd13bc79	-0.036068413
34	0x3d824943	0.0636163
35	0xbd33a563	-0.043858897
36	0xbd33d172	-0.043900914
37	0xbda9a3ba	-0.082831815
38	0xbd09f8fd	-0.03368472
39	0x3cafc669	0.021456914
40	0x3d16f70b	0.036856692
41	0xbd4511cb	-0.04811267
42	0xbd9a183b	-0.07524153
43	0xbb84d1f0	-0.004053347
44	0x3d01e228	0.03170982
45	0xbc5e5dda	-0.013572181
46	0xbdbc5f99	-0.09197921
47	0xbd0d09a1	-0.03443301
48	0xbdaa7cb3	-0.08324566
49	0xbcd3ed59	-0.025870012
50	0xbcfb3635	-0.030665496
51	0xbbd749cd	-0.006570077
52	0x3d1a81f1	0.037721578
53	0xbcfeed0a	-0.031118888
54	0x3c886c66	0.01665325
55	0xbd7155b6	-0.05891963
56	0x3d47d442	0.04878641
57	0xbd2665d2	-0.040624447
58	0xbd881edc	-0.06646511
59	0x3d196bb8	0.037456244
60	0xbd147ff5	-0.03625484
61	0xba0d9593	-0.00054010114
62	0xbb8ec251	-0.0043566604
63	0xbcd25c5a	-0.025678802
64	0x3cadf06c	0.021232806
65	0xbd6cc308	-0.057803184
66	0xbd76331e	-0.060107343
67	0xbde0413e	-0.10949944
68	0xbd1ec694	-0.038763598
69	0x3cd5a06a	0.026077468
70	0xbc5e2bb1	-0.0135602215
71	0xbdcd104a	-0.100128725
72	0xbc2f3020	-0.010692626
73	0xbd66952d	-0.05629461
74	0xbcc4283b	-0.023944965
75	0x3c1524d2	0.009103017
76	0x3e024e13	0.12725095
77	0x3de08779	0.10963339
78	0x3dc1f3d0	0.09470332
79	0x3e3e7b2f	0.18601678
80	0x3da18480	0.078866005
81	0x3dc370cd	0.095429994
82	0x3dd456d2	0.10368122
83	0x3e1a3fba	0.15063372
84	0x3e330df2	0.17485788
85	0xbd7cff92	-0.06176717
86	0x3d9c4d67	0.07631951
87	0x3d432925	0.04764666
88	0x3de6c2b1	0.11267603
89	0x3e0c67b3	0.13711433
90	0xbdb3f23a	-0.087864354
91	0x3d48c35f	0.049014445
92	0x3c92db35	0.017926792
93	0x3d43729e	0.04771673
94	0x3da29f24	0.0794051
95	0xbba1e51e	-0.004940643
96	0xbd0ca817	-0.03433999
97	0x3c9e86f1	0.019351454
98	0x3e022934	0.1271103
99	0x3e0afca3	0.13572936
100	0xbd710938	-0.058846682
101	0xbca1d552	-0.01975504
102	0x3d88bc7f	0.06676578
103	0xbd8568e7	-0.06514149
104	0xbc7f6c0c	-0.015589725
105	0x3d4733eb	0.048633497
106	0x3d9dc215	0.07703034
107	0x3d2c8b6d	0.042125154
108	0x3dacd4c0	0.08439016
109	0xbd8b025d	-0.0678756
110	0xbda330d3	-0.07968297
111	0xbd01614a	-0.031586923
112	0x3cd40440	0.025880933
113	0xbca4c3bd	-0.020112867
114	0xbcdfb273	-0.02730677
115	0x3b22ab91	0.00248215
116	0xbd4dff22	-0.05029214
117	0x3d92c830	0.07167089
118	0xbcbde3df	-0.023179946
119	0xbcd1d949	-0.025616305
120	0xbd6222e3	-0.05520905
121	0x3b987877	0.0046530324
122	0x3c689110	0.014194742
123	0xbd11d4a6	-0.035603188
124	0xbc472f0d	-0.012157214
125	0xbcf9f858	-0.030513927
126	0xbcb38416	-0.02191357
127	0x3d54af93	0.051925253
128	0xbc896640	-0.01677239
129	0xbd19bc2f	-0.03753298
130	0xbdbef3b2	-0.09323825
131	0xbcc498cf	-0.023998646
132	0xbce0fb30	-0.027463526
133	0xbd8dd85e	-0.069260344
134	0xbd1b7fca	-0.037963666
135	0xbd065a5d	-0.03280102
136	0xbda88991	-0.08229364
137	0xbd4d52ce	-0.050127797
138	0xbdbf6249	-0.09344918
139	0x3d1e88a8	0.038704544
140	0xbab52936	-0.0013821486
141	0xbde3f485	-0.11130623
142	0xbe0d8eb7	-0.13823973
143	0xbe01f6e7	-0.12691842
144	0xbd100102	-0.03515721
145	0xbd4837cd	-0.04888134
146	0xbdb7c308	-0.08972746
147	0xbe0bd612	-0.1365588
148	0xbcb8a4f9	-0.022539603
149	0x3c9c6558	0.019091293
150	0xbc632f2a	-0.013866225
151	0xbd8d66f2	-0.06904401
152	0x3d0b6c43	0.034038793
153	0x3d1ea336	0.03872987
154	0xbda42eb7	-0.08016723
155	0x3d354ae5	0.044260878
156	0xbd2514b2	-0.04030294
157	0xbddb0232	-0.10693778
158	0x3bd1d9fc	0.0064041596
159	0xbd860c72	-0.065453425
160	0xbcb0ecc8	-0.021597281
161	0xbc915846	-0.017742287
162	0xbdc27167	-0.09494286
163	0xbda795a1	-0.08182836
164	0xbc1757f9	-0.009237283
165	0xbc61fde4	-0.013793442
166	0xbc4d439a	-0.0125283245
167	0xb96b4940	-0.00022438634
168	0xbd071aad	-0.032984424
169	0xbb0245fc	-0.001987814
170	0x3d2dc2ed	0.042422224
171	0x3db1b5f0	0.0867728
172	0x3d8a968d	0.067669965
173	0xbaa40ca9	-0.001251598
174	0x3d543a1e	0.051813237
175	0x3d77ec88	0.06052831
176	0x3cc0f10a	0.023552436
177	0xba7292ca	-0.00092534407
178	0x3dd77456	0.10520236
179	0x3e0813a6	0.13288745
180	0xbd83b42e	-0.06430851
181	0x3ce26610	0.027636558
182	0xbd46e421	-0.048557404
183	0xbc276fa9	-0.010219493
184	0xbc936067	-0.017990304
185	0x3d861d22	0.065485254
186	0x3d217f81	0.039428238
187	0x3da313ec	0.07962784
188	0x3dbab5ef	0.09116732
189	0x3dd61ca7	0.10454684
190	0xbd5f6cff	-0.054547306
191	0x3cf13177	0.029442532
192	0x3da45664	0.0802429
193	0x3dbd9405	0.09256748
194	0x3e0b7d25	0.13621958
195	0xbd024475	-0.031803567
196	0xbd6d0cdd	-0.057873596
197	0xbd3f4143	-0.046693098
198	0x3da6cb41	0.08144236
199	0x3db49ae0	0.088186026
200	0xbca049cc	-0.01956644
201	0xbccc9851	-0.024974974
202	0x3dbdebf7	0.09273522
203	0x3dc790c7	0.09744411
204	0xbd0a5f3d	-0.033782233
205	0xbd1ae392	-0.037814684
206	0x3d8f35e8	0.06992704
207	0xbd173b76	-0.03692194
208	0xbd822870	-0.06355369
209	0xbcec5e11	-0.028853448
210	0x3dc0126c	0.09378514
211	0x3dc7d1cb	0.09756812
212	0x3d90c539	0.07068867
213	0x3d872984	0.06599715
214	0xbbc25a7e	-0.0059311977
215	0x3d4f979e	0.050681703
216	0xbb7f69b4	-0.0038972916
217	0x3d9d797a	0.076891854
218	0x3d849963	0.06474569
219	0x3d0506dd	0.03247725
220	0x3b325df8	0.0027216654
221	0x3dddf448	0.108376086
222	0x3d4bd3b7	0.049762454
223	0x3e25c12e	0.16186973
224	0x3e0be841	0.13662817
225	0x3c44c8fb	0.012010808
226	0x3d9bd392	0.07608713
227	0xbd2505b5	-0.040288646
228	0x3c9b5044	0.018959172
229	0x3d255bc9	0.040370736
230	0xbd9851d8	-0.074374855
231	0xbd808d08	-0.062768996
232	0xbc84a002	-0.016189579
233	0xbcb7e514	-0.0224481
234	0xbdff605b	-0.1246955
235	0xbd9acc79	-0.07558531
236	0xbdf7acf0	-0.12093532
237	0xbe0538c6	-0.13009939
238	0xbda67762	-0.08128239
239	0xbdb60023	-0.08886745
240	0x3cb3e295	0.021958629
241	0xbdce3d38	-0.1007027
242	0xbdbcfec9	-0.09228284
243	0xbdd7cb81	-0.10536862
244	0x3d1c05d9	0.038091514
245	0xba9cea9c	-0.0011971775
246	0x3d57717f	0.052598473
247	0xbc08e397	-0.008355043
248	0x3d0ae035	0.033905227
249	0x3d219222	0.039446004
250	0xbd64811f	-0.055787202
251	0xbd2dc600	-0.042425156
252	0x3d69d9ae	0.05709236
253	0x3c6e6b72	0.014551984
254	0x3da8b51d	0.082376696
255	0xbc45a71b	-0.012063767

conv2.bias f4 [12]
0	0xbd80823f	-0.062748425
1	0x3d4224bf	0.047398325
2	0xbeec8327	-0.4619381
3	0x3e434741	0.1907015
4	0x3ec824a5	0.39090458
5	0x3e0c1bb4	0.13682443
6	0x3f0516eb	0.51988095
7	0xbd859dcf	-0.0652424
8	0x3eacf2cd	0.33778992
9	0x3da488a0	0.08033872
10	0xbcf6d45c	-0.030130558
11	0xbd558ae4	-0.05213441

fully_connected1.weight f4 [120, 1200]
0	0x3d126206	0.035738014
1	0x3cf8f49f	0.030390082
2	0x3d0aa8ff	0.033852573
3	0xbc7490f8	-0.014927141
4	0x3c997b8d	0.018735671
5	0xbad209c9	-0.0016024645
6	0xbc9d92d7	-0.019235058
7	0xbc959336	-0.018258672
8	0x3ce69af9	0.028150069
9	0xbc3e915e	-0.011631338
10	0xbc7e0d49	-0.015506097
11	0x3d0a0df4	0.033704713
12	0xbc8de3d9	-0.01732056
13	0xbc83c649	-0.01608576
14	0x3cd4b51c	0.025965266
15	0x3bba7dc5	0.0056912624
16	0x3c210a4a	0.009829113
17	0x3cc00a7c	0.0234425
18	0x3c48d623	0.012258085
19	0x3c69079f	0.014223008
20	0xbb8e6d9b	-0.004346562
21	0xbbb0a59e	-0.005390837
22	0x3c8b04e1	0.0169701
23	0x3c07812d	0.008270544
24	0x3cd6ce55	0.026221434
25	0x3c959837	0.018261058
26	0xbba356a8	-0.0049846955
27	0xbcda573a	-0.026652921
28	0x3c8cda82	0.017194036
29	0x3ced63ba	0.028978217
30	0xbc899c54	-0.016798176
31	0x3ceb65ae	0.028735008
32	0xbc52e433	-0.01287179
33	0x3c3e465e	0.0116134565
34	0xbcb85411	-0.022501023
35	0xbc9018ef	-0.017590014
36	0xbce0bd17	-0.027433915
37	0xbab573f8	-0.0013843765
38	0x3b930604	0.004486801
39	0x3ba41fb2	0.005008661
40	0x3cbf1173	0.02332375
41	0xbbcb0c08	-0.0061965026
42	0xbbe42999	-0.0069629666
43	0x3c8cd0e0	0.017189443
44	0x3bf68237	0.007522847
45	0xbb1b520a	-0.0023700022
46	0xbb9666b8	-0.0045898817
47	0x3c6654c3	0.014058295
48	0x3cd1b70f	0.025599984
49	0x3c8ec672	0.01742861
50	0x3cdabf2f	0.026702492
51	0x3c504042	0.012710633
52	0x3c861a3b	0.01636993
53	0xbc9078fd	-0.017635817
54	0xbc88097a	-0.016606081
55	0xbcb07e61	-0.021544637
56	0x3c7dd047	0.015491552
57	0x3c2d5c0a	0.010581026
58	0xbaa500cb	-0.0012588737
59	0x3bc9f26e	0.006162933
60	0x3c7bf8e4	0.015379164
61	0xbc354955	-0.011064847
62	0xb9ad0ae4	-0.00033005245
63	0xbba32b44	-0.004979523
64	0xbc287703	-0.010282281
65	0xbbd43484	-0.006475987
66	0xbc0cf1ba	-0.008602554
67	0xbc584bd1	-0.01320167
68	0x3c20c9a1	0.009813697
69	0x3b0782a9	0.0020677245
70	0x3d13fbc6	0.03612878
71	0x3c4e320f	0.012585177
72	0xbcd1821c	-0.025574736
73	0x3cf562c9	0.029954331
74	0x3c8f5d7d	0.017500633
75	0x3d01107b	0.031509858
76	0x3aa87d56	0.0012854736
77	0xbc129691	-0.008947031
78	0x3c4eede9	0.012629964
79	0x3c5f45ae	0.013627453
80	0x3cc091cf	0.023507027
81	0x3d0b68ff	0.03403568
82	0xbcb17152	-0.02166048
83	0xbba58047	-0.0050506922
84	0xbb9bde3b	-0.0047567165
85	0x3c47f207	0.0122037
86	0x3c1acb00	0.009447813
87	0x3c8b4281	0.016999485
88	0x3c8ab750	0.016933113
89	0xbc0ef93e	-0.008726416
90	0x3cb490b6	0.02204166
91	0xbcc10417	-0.02356152
92	0xbbf7090c	-0.0075389203
93	0x3c86a472	0.016435836
94	0xbc7d28ec	-0.015451651
95	0x3c9e8546	0.01935066
96	0xbc8bd4aa	-0.01706918
97	0x3cbf9e45	0.023390898
98	0x3c0fc987	0.008776075
99	0x3c04e475	0.008111109
100	0xbc4ec44e	-0.012620045
101	0xbcd0cccc	-0.02548828
102	0xbc8b8ba1	-0.017034354
103	0x3bdb1da2	0.006686882
104	0xbc40fbe5	-0.011778806
105	0x3cbbddae	0.022932854
106	0xbcf284ce	-0.029604342
107	0x3ca37689	0.019953983
108	0xba8843d0	-0.0010396186
109	0x3bbf234f	0.0058330665
110	0x3bc04cf0	0.0058685467
111	0x3a141d7b	0.0005650145
112	0x3c012e15	0.007884522
113	0xbca422ad	-0.020036066
114	0x3cd22f3f	0.025657294
115	0xbcdea63b	-0.027178874
116	0xbc1beb29	-0.009516516
117	0x3c93f001	0.018058779
118	0x3c225646	0.0099082645
119	0xbcab2448	-0.020891324
120	0x3ccc4a5c	0.024937801
121	0xbc19f763	-0.0093973605
122	0x3bceea42	0.006314547
123	0xb994c48d	-0.00028375202
124	0x3cdf3b4c	0.027249955
125	0xbc9b42da	-0.018952776
126	0xba8af44c	-0.0010601371
127	0x3bcb03b2	0.006195509
128	0x3c4e5b32	0.012594985
129	0x3b9df8da	0.004820925
130	0xbce90f40	-0.028449655
131	0x3ca226ed	0.019793952
132	0x3cd51998	0.02601318
133	0xbc4cb121	-0.012493403
134	0x3a51f706	0.00080095266
135	0xbc27d52b	-0.010243694
136	0xbc2e5d48	-0.010642357
137	0x3ccb53fd	0.024820322
138	0xbc84448d	-0.016145969
139	0x3c681d14	0.014167089
140	0xbbcd8b9c	-0.0062727463
141	0x3c65fe10	0.014037624
142	0x3c52eadf	0.01287338
143	0x3ca86379	0.020555245
144	0xb8b4cd98	-8.621364e-05
145	0xbcc9323c	-0.024560086
146	0x3ca49204	0.020089157
147	0xbb5eba02	-0.003398538
148	0xbce104ab	-0.027468046
149	0xbcf20918	-0.029545352
150	0xbccfda28	-0.02537258
151	0xbc279ff8	-0.010231011
152	0xbcc00760	-0.023441017
153	0xbcd23c96	-0.025663655
154	0x3c43917f	0.011936544
155	0x3a134b0f	0.00056187896
156	0x3c7efc46	0.015563076
157	0xbc4a82ee	-0.012360318
158	0x3c18e5ce	0.009332133
159	0xbbb79fc5	-0.005603763
160	0x3bc53d24	0.0060192514
161	0xbc69eb90	-0.014277354
162	0xbc3188ca	-0.010835836
163	0x3cb46eca	0.022025485
164	0xbc8348f2	-0.016025994
165	0xbbe81f3d	-0.007083802
166	0x3aad65bd	0.0013229173
167	0x3b004d82	0.0019577448
168	0xbc19ba5d	-0.009382811
169	0x3b83d6c8	0.0040234067
170	0x3cca567b	0.02469944
171	0xbcb787c0	-0.022403598
172	0xbc577c7a	-0.013152236
173	0xbc496f89	-0.012294658
174	0x3c597c02	0.013274195
175	0x3bdab139	0.0066739586
176	0xbca9c5e5	-0.020724246
177	0x3bc98f67	0.006151128
178	0xbd036e8b	-0.032087844
179	0xbb92bd7b	-0.0044781542
180	0xbc8e7275	-0.017388562
181	0xbcb8da7b	-0.022565117
182	0xbd3058c9	-0.043053422
183	0xbcbfec21	-0.023428025
184	0x3b852881	0.0040636663
185	0xbcc48295	-0.023988048
186	0xbc93a847	-0.018024577
187	0xbcc1bec3	-0.023650533
188	0x3b5b4637	0.00334586
189	0xbc22b1aa	-0.009930054
190	0x3ca8313f	0.020531295
191	0xbcaf0f30	-0.021369547
192	0xbbd9c805	-0.0066461586
193	0xbcbd4b59	-0.023107218
194	0xbce95467	-0.028482629
195	0xbc81cfa9	-0.01584609
196	0x3c6acb4b	0.014330695
197	0xbc8bbed6	-0.017058771
198	0x3c8f41fd	0.01748752
199	0x3cd64bba	0.026159156
200	0x3ccf9702	0.02534056
201	0x3ce57271	0.028008671
202	0x3cac4717	0.021029992
203	0xbbcfa518	-0.0063368194
204	0x3cb3cde7	0.021948768
205	0x3c71ed7d	0.014766094
206	0x3c58b977	0.013227812
207	0x3d033f9f	0.032043096
208	0x3d229de6	0.039701365
209	0x3d5ede27	0.05441108
210	0xbc313613	-0.010816115
211	0xbc02f6f8	-0.007993452
212	0xbcbff042	-0.023429994
213	0xbc64e52a	-0.013970653
214	0xbc31e288	-0.010857232
215	0xbc92dfa1	-0.0179289
216	0xbba23f93	-0.0049514263
217	0xbbce8798	-0.006302785
218	0x3cb456df	0.02201408
219	0x3d31df64	0.043425933
220	0x3cf54a43	0.029942637
221	0x3c0f1046	0.008731907
222	0xbbfed6e2	-0.007777081
223	0x3c5ee172	0.013603555
224	0x3cd4cdcb	0.025977036
225	0xbc2923c1	-0.010323466
226	0xbca74d10	-0.020422488
227	0x3bc6d31e	0.0060676476
228	0xb93ab5ac	-0.0001780602
229	0x3d391a1d	0.04519092
230	0x3ce20ffa	0.027595509
231	0x3bc684b4	0.0060583
232	0xbc6cd868	-0.014455892
233	0xbb3a3348	-0.0028411914
234	0x3b54eb8a	0.0032489025
235	0x3ce73f83	0.028228527
236	0xbc3c2b42	-0.011484923
237	0xbc0074f0	-0.00784038
238	0x3cb1dff0	0.021713227
239	0x3cbf81b9	0.023377286
240	0x3c728762	0.014802786
241	0xbc789eaa	-0.015174547
242	0x3cb25b72	0.02177212
243	0x3b168b14	0.002297108
244	0xbbd910c7	-0.0066243145
245	0xbcb4f6de	-0.022090372
246	0x3d0382d9	0.032107208
247	0x3c2a3bf7	0.010390273
248	0x3ce2dd17	0.027693314
249	0x3c3c2bdb	0.011485065
250	0x3b73c1b8	0.0037194323
251	0xbcb3d645	-0.021952758
252	0xbcedea1f	-0.029042302
253	0xbccf4717	-0.025302453
254	0xbca3f58e	-0.02001455
255	0x3cb76f9c	0.022392087

fully_connected1.bias f4 [120]
0	0x3d0aaa6a	0.033853926
1	0x3d060b7b	0.032725792
2	0x3d19a8da	0.037514545
3	0xbcfcdb5f	-0.030866323
4	0x3cb6b891	0.022304805
5	0xbc7cc92e	-0.015428824
6	0xbb9153c4	-0.0044350345
7	0x3bc108c4	0.0058909375
8	0xbae077bf	-0.0017125531
9	0x3cb9d7c6	0.022685897
10	0xbd07da7a	-0.03316734
11	0xbcbb63d4	-0.02287475
12	0xbb8123af	-0.0039410214
13	0xbcca7bd9	-0.024717258
14	0x3a899336	0.0010496143
15	0x3d237a47	0.039911535
16	0xbb01e995	-0.0019823064
17	0xbc604ed2	-0.013690667
18	0x3bb3cd95	0.005487154
19	0x3d1bfb0d	0.038081218
20	0xbd6f6aad	-0.058451343
21	0xbd10a47a	-0.035313107
22	0xbc8f79c5	-0.017514119
23	0x3cf2a990	0.02962187
24	0xbd0bdd77	-0.034146752
25	0x3cb6da90	0.022321016
26	0x3c7ce645	0.01543576
27	0x3d50bd65	0.05096187
28	0x3910bc42	0.00013803042
29	0x3c47e2a7	0.012200034
30	0x3c46b997	0.012129209
31	0x3d5892f4	0.05287452
32	0xbb4997ab	-0.0030760567
33	0x3c9534e1	0.018213691
34	0x3b939a79	0.0045044986
35	0xbd2beebd	-0.041975725
36	0xbc14e948	-0.009088822
37	0xbd05e4d6	-0.032688938
38	0x3c6827ac	0.014169615
39	0xbc5abf63	-0.013351294
40	0xbd2ffcf0	-0.04296583
41	0xbcc8968a	-0.024485845
42	0x3c2f5ff7	0.010704032
43	0xbcb60f1b	-0.022224
44	0xbd51b23e	-0.051195376
45	0x3d1b742b	0.037952583
46	0xbcae04b3	-0.021242475
47	0xbd043f83	-0.032287132
48	0x3c9a495a	0.018833805
49	0x3c97658a	0.018481035
50	0x3c2c9552	0.010533648
51	0x3ccd7d61	0.0250842
52	0x3cda4942	0.02664626
53	0x3d0d4047	0.034485128
54	0x3d17bae0	0.037043452
55	0x3cd4d2da	0.025979448
56	0xbcc11813	-0.02357105
57	0x3cdaa009	0.026687639
58	0xbca62d79	-0.020285355
59	0x3d654008	0.055969268
60	0xbc3bcf9a	-0.01146307
61	0x3bf0a432	0.0073437924
62	0x3bfe47d2	0.0077600265
63	0x3c953559	0.018213915
64	0x3d6f7bdd	0.058467735
65	0x3b46b460	0.0030319914
66	0x3caac4ec	0.020845853
67	0xbd0de4ab	-0.034641903
68	0x3bc8cf3c	0.00612822
69	0x3c63b4a4	0.013898049
70	0xbc7f9093	-0.015598434
71	0x3cecb1a9	0.028893309
72	0x3c9db023	0.019249028
73	0x3c6c33ff	0.014416694
74	0xbcb914cf	-0.02259293
75	0x3d35ed4d	0.04441576
76	0x3cb14376	0.021638613
77	0x3b3f8ff6	0.0029230095
78	0xbcd5074b	-0.026004454
79	0x3cc4d90c	0.024029277
80	0xbd382fb3	-0.044967365
81	0xbbad4be8	-0.0052885897
82	0xbc2521c7	-0.010078854
83	0x3c92071a	0.017825652
84	0xbd4f458c	-0.050603434
85	0xbc9ecfb6	-0.019386154
86	0xbbce749c	-0.006300522
87	0x3d061bce	0.03274136
88	0xbc8fdac6	-0.017560374
89	0x3b358b55	0.0027701457
90	0x3d08bee3	0.03338517
91	0xbcfd939d	-0.030954177
92	0xbcf4ad1b	-0.0298677
93	0x3c952907	0.01820804
94	0xbb2e086c	-0.0026555313
95	0xbb05a0d0	-0.0020390041
96	0x3d11cc70	0.035595357
97	0x3ccc33d1	0.024927052
98	0x3ca18a31	0.019719215
99	0xbc386c7a	-0.011256332
100	0xbc32887d	-0.010896799
101	0x3b444bdb	0.002995244
102	0xbce321fd	-0.027726168
103	0x3bc4748c	0.005995339
104	0x3c1d9c93	0.00961985
105	0xbcd0736f	-0.025445668
106	0x3cc89c90	0.024488717
107	0x3b46671a	0.0030273856
108	0x3bd4275e	0.0064744195
109	0xbcd96155	-0.02653567
110	0x3da23f4e	0.07922231
111	0xbc512896	-0.012766024
112	0x3c8e67dd	0.01738351
113	0x3c73cb59	0.014880025
114	0xbb3342fb	-0.0027353156
115	0xbd38fa83	-0.04516078
116	0x3bb7433f	0.005592733
117	0x3ce3d77b	0.02781271
118	0x3cd97b61	0.02654809
119	0xbb1b0196	-0.0023652068

fully_connected2.weight f4 [10, 120]
0	0x3d3e13cc	0.0464056
1	0x3d86472a	0.06556542
2	0x3ca88613	0.020571744
3	0x3db2e411	0.087349065
4	0xbdb20487	-0.0869227
5	0xbd24c3a5	-0.040225644
6	0xbd2fdcb1	-0.042935077
7	0x3d39f9ff	0.04540443
8	0x3dd0f574	0.102030665
9	0x3dc47528	0.09592658
10	0x3d8e2dde	0.06942342
11	0xbcb173ad	-0.021661604
12	0xbd8fb48a	-0.07016857
13	0xbdbd24fd	-0.092355706
14	0xbdc458f2	-0.095872775
15	0xbd59e6d7	-0.05319866
16	0x3d4c7cf8	0.049923867
17	0xbd5f9cec	-0.05459301
18	0x3d822a80	0.063557625
19	0xbcf82ab6	-0.030293804
20	0xbdee43ff	-0.11634063
21	0xbb65134c	-0.0034954129
22	0xbde4c806	-0.11170964
23	0x3d3d7eb8	0.046263427
24	0x3d3c88c6	0.046028875
25	0x3e1bdffe	0.15222165
26	0x3dbb1d80	0.09136486
27	0xbdf2092c	-0.11818156
28	0xbd41fc0c	-0.04735951
29	0xbc84b63e	-0.016200181
30	0x3d9beb42	0.07613231
31	0x3d0f73e3	0.035022628
32	0x3c04ba36	0.008101037
33	0xbd939061	-0.072052725
34	0x3d6cd795	0.057822783
35	0xbd06f50c	-0.03294854
36	0xbd82411c	-0.06360075
37	0x3d7a2b9a	0.061076738
38	0xbd19ac03	-0.03751756
39	0x3c91a895	0.017780581
40	0xbe02196e	-0.12705013
41	0x3c8388e4	0.016056485
42	0xbcac7fd0	-0.02105704
43	0xbd3263ef	-0.043552335
44	0x3d346c79	0.04404876
45	0x3ca4b9dc	0.020108156
46	0xbd084d09	-0.03327659
47	0x3d50352e	0.050831966
48	0x3d8a06a8	0.06739551
49	0xbd876c9b	-0.06612512
50	0x3d116c22	0.035503514
51	0x3ddffa73	0.10936441
52	0x3e0ec8e9	0.13943829
53	0x3da2e090	0.07952988
54	0xbdb13f8a	-0.08654697
55	0xbd8c1d83	-0.068415664
56	0x3dddbd7a	0.108271554
57	0xbd67da90	-0.05660492
58	0xbb3d811b	-0.0028916064
59	0x39a416c4	0.0003129748
60	0xbc8846ee	-0.016635384
61	0xbd82f969	-0.063952275
62	0x3e003443	0.12519936
63	0x3d72b58e	0.059255175
64	0x3d1896cc	0.037253186
65	0x3d998029	0.07495148
66	0x3ca8d575	0.020609597
67	0xbc92be38	-0.017912969
68	0x3bb9cc09	0.005670075
69	0x3ce8132c	0.028329454
70	0x3d31286a	0.043251432
71	0xbddc0260	-0.107426405
72	0xbd859955	-0.065233864
73	0xbd01da0a	-0.03170208
74	0x3ce70269	0.028199391
75	0xbce1b4e8	-0.027552083
76	0xbd9a134b	-0.07523211
77	0x3cd7a109	0.026321905
78	0xbdd0e74e	-0.10200368
79	0x3daf5027	0.0856021
80	0x3c67c760	0.014146656
81	0xbc04295c	-0.0080665015
82	0xbdad45bd	-0.08460567
83	0x3c7b250b	0.015328656
84	0x3dd791ef	0.105258815
85	0xbdc33591	-0.09531701
86	0xbddbaa16	-0.10725801
87	0xbd905e19	-0.07049198
88	0x3e16bfa7	0.14721547
89	0xbd77a838	-0.06046316
90	0xbdeb93a4	-0.115027696
91	0x3ca8eebb	0.020621648
92	0xbd253b72	-0.040339895
93	0xbd7ddd1b	-0.06197844
94	0xbcef30a2	-0.029197995
95	0x3d56573f	0.052329298
96	0xbcaf6ee9	-0.02141519
97	0xbd80a91e	-0.062822565
98	0xbd63d0e7	-0.055619147
99	0xbda03416	-0.078224346
100	0x3dfb8e0d	0.122829534
101	0xbd42cabd	-0.047556628
102	0xbda0449c	-0.07825586
103	0x3d90861b	0.070568286
104	0xbda84b7e	-0.08217524
105	0xbcf33604	-0.029688843
106	0xbd30ac54	-0.043133095
107	0x3d846532	0.06464614
108	0xbdbba7aa	-0.09162839
109	0xbc918890	-0.017765313
110	0x3dc1ebcd	0.094688036
111	0xbd4adbf8	-0.049526185
112	0x3d76e6bd	0.060278643
113	0x3d6b599c	0.057458505
114	0xbd3b3ea8	-0.04571405
115	0x3df08f14	0.1174604
116	0x3dbe8bd9	0.093040176
117	0x3d421c87	0.047390487
118	0x3d8f378e	0.06993018
119	0x3deb1e4d	0.11480389
120	0xbde4eb4b	-0.11177691
121	0x3df73601	0.12070847
122	0xbd9ebf45	-0.077513255
123	0x3d823666	0.06358032
124	0x3c9e7f56	0.019347828
125	0x3d97e48f	0.07416641
126	0xbdf26834	-0.118362814
127	0x3e0e534c	0.13898963
128	0xbda93ee4	-0.082639486
129	0x3ce7f5a3	0.02831537
130	0xbdfb609f	-0.122742884
131	0x3c8df502	0.017328743
132	0xbd17272f	-0.036902603
133	0x3d90ce8e	0.07070647
134	0x3db674c7	0.08908992
135	0xbe018435	-0.12648089
136	0xbe0a8bf8	-0.13529956
137	0x3d3aca8b	0.045603316
138	0x3e067f24	0.13134438
139	0xbd43e4ee	-0.047825746
140	0x3dc64681	0.09681416
141	0x3c8c7b4e	0.01714864
142	0xbddacdc3	-0.10683777
143	0x3d551369	0.052020464
144	0x3e1ffb25	0.15623148
145	0xbe322d53	-0.17400102
146	0xbc9bcf85	-0.019019851
147	0xbde547ef	-0.11195361
148	0xbc861e90	-0.016371995
149	0x3c0c6517	0.008569024
150	0xbd7aa3a2	-0.06119121
151	0xbcf5de27	-0.030013157
152	0xbe4dbd40	-0.20091724
153	0x3e283b1b	0.16428797
154	0xbb6d76f6	-0.0036234236
155	0xbb895980	-0.0041915774
156	0xbc182ab4	-0.009287525
157	0xbd2f8b2e	-0.04285734
158	0x3b5061f9	0.0031796678
159	0xbd38a38e	-0.045077853
160	0x3cf0c6a9	0.029391604
161	0xbdb94822	-0.09046961
162	0xbdbaffa5	-0.091307916
163	0xbda65900	-0.08122444
164	0xbc7b77c1	-0.015348376
165	0xbe07a337	-0.13245855
166	0x3e0cbc60	0.13743734
167	0x3d491dbd	0.049100626
168	0x3e25f8b1	0.1620815
169	0xbd977a21	-0.07396341
170	0xbcb36259	-0.021897482
171	0xbd2f7c89	-0.042843375
172	0x3ce0ec49	0.02745642
173	0xbdc8d746	-0.09806685
174	0xbbb9a113	-0.0056649535
175	0xbe25288a	-0.16128746
176	0x3e0a38f5	0.1349829
177	0xbe039b0d	-0.12852116
178	0x3d984989	0.07435901
179	0xbdcae89a	-0.099076465
180	0x3d91ad6a	0.07113154
181	0xbdd76665	-0.10517577
182	0xbd5392b2	-0.05165357
183	0x3ca1de6c	0.01975938
184	0xbe19ef2f	-0.15032648
185	0xbccae783	-0.024768597
186	0x3d2d2098	0.042267412
187	0x3df6725e	0.120335326
188	0xbc5d1a12	-0.013494985
189	0x3d0e2e04	0.034711853
190	0xbd7e67da	-0.06211076
191	0x3c846ca4	0.016165085
192	0x3d1341b5	0.035951335
193	0xbd800883	-0.062516235
194	0x3e00a711	0.12563731
195	0x3dbb3dfb	0.09142681
196	0xbdc6d63b	-0.0970883
197	0x3d910138	0.070803106
198	0x3def9913	0.116991185
199	0xbd0b3afa	-0.03399179
200	0x3e20d19e	0.15704963
201	0xbd224e0d	-0.039625216
202	0x3df951d3	0.1217381
203	0x3d608df2	0.05482287
204	0x3dcadcab	0.0990537
205	0xbdc573b4	-0.09641209
206	0xbde50ab4	-0.11183682
207	0xbda2d083	-0.07949927
208	0x3d8058ea	0.06266959
209	0xbdb15d92	-0.08660425
210	0xbc5e1bde	-0.013556449
211	0xbcc07b50	-0.0234963
212	0xbd97237b	-0.07379814
213	0x3d4dd5d9	0.05025277
214	0x3ddab26d	0.10678563
215	0x3d9a40a7	0.07531863
216	0x3c905967	0.017620755
217	0xbc83e386	-0.016099703
218	0x3d634a37	0.0554907
219	0x3e18f55c	0.14937347
220	0xbdcca675	-0.09992687
221	0xbe32f7c8	-0.17477334
222	0xbcd74a4b	-0.026280543
223	0x3d35a6dc	0.044348583
224	0xbe2eea9e	-0.17081687
225	0xba50699e	-0.00079503085
226	0x3d25636e	0.040378027
227	0xbd119f21	-0.035552148
228	0xbdbf87b8	-0.09352058
229	0x3de23c85	0.110466994
230	0xbd9affd2	-0.07568325
231	0x3d76a1c4	0.060212865
232	0x3d2527e7	0.040321257
233	0x3d86bdbd	0.065791585
234	0xbc11b09e	-0.0088922065
235	0x3bd437a3	0.006476359
236	0xbc459208	-0.012058742
237	0xbe2bfeb7	-0.16796385
238	0xbdadc11a	-0.08484097
239	0xbddaef1e	-0.10690139
240	0xbd477f50	-0.0487054
241	0xbd402dc6	-0.046918653
242	0xbd3f5a77	-0.046717133
243	0x3d5617d8	0.052268833
244	0x3d18ca8a	0.03730253
245	0x3c085e4b	0.008323262
246	0x3df8851c	0.121347636
247	0xbc755219	-0.014973187
248	0x3dc9aacb	0.09847029
249	0xbc80f447	-0.01574148
250	0x3d894bdb	0.067039214
251	0xbd18d5cf	-0.03731328
252	0xbd27f77b	-0.0410075
253	0xbd9ecce4	-0.077539235
254	0x3d01754c	0.031606004
255	0x3b887e7b	0.0041654683

fully_connected2.bias f4 [10]
0	0xbd951a7f	-0.07280444
1	0xbe649cda	-0.22325459
2	0x3d2e8c42	0.04261423
3	0xbd154358	-0.036441177
4	0x3e425eec	0.18981522
5	0xbd5d3da0	-0.05401385
6	0xbc234e42	-0.009967389
7	0xbcfde2b0	-0.030991882
8	0x3e2bcca7	0.16777287
9	0xbe668ab7	-0.22513853
