models/archive/simple_model_testing_nobackward.pth (torch, 251391 bytes, 10 tensors)

conv1.weight f4 [6, 3, 5, 5]
0	0x3e61051d	0.21974607
1	0x3e58a68e	0.21157286
2	0x3e305afc	0.17222208
3	0x3e773459	0.24141063
4	0x3d438262	0.047731765
5	0x3e4caf1e	0.19988677
6	0x3d305818	0.043052763
7	0x3d36c537	0.044621672
8	0x3cf4fb1e	0.029904898
9	0x3d192957	0.03739294
10	0x3dcb4656	0.09925525
11	0xbe0eea91	-0.13956667
12	0xbe17f8a7	-0.14840947
13	0xbd698fe5	-0.057021994
14	0xbdf914d7	-0.12162178
15	0x3d2bc455	0.041935284
16	0xbe2a30d9	-0.16620196
17	0xbe4edad1	-0.2020066
18	0xbd290017	-0.04125985
19	0xbde24b6d	-0.110495426
20	0xbe263697	-0.16231762
21	0xbdbcf995	-0.092272915
22	0xbe3220a8	-0.1739527
23	0xbe337a56	-0.17527136
24	0xbd8ff744	-0.07029584
25	0x3d20f0f0	0.039292276
26	0x3e37b0c3	0.17938523
27	0x3dcec392	0.10095896
28	0x3d88997c	0.066699
29	0x3cecb58f	0.028895168
30	0x3df5befc	0.11999318
31	0x3e1b1a42	0.15146735
32	0xbd843264	-0.06454924
33	0x3ded643e	0.11591385
34	0x3cb64884	0.022251375
35	0xbd9f22b4	-0.07770291
36	0xba723729	-0.0009239787
37	0x3cd06f80	0.025443792
38	0xbdacc084	-0.08435157
39	0x3da3894a	0.0798517
40	0x3d4f7a56	0.050653778
41	0xbcf51972	-0.02991936
42	0xbdccab75	-0.0999364
43	0xbc357dd2	-0.011077361
44	0xbe25499f	-0.16141365
45	0x3c3fe61b	0.011712576
46	0xbde2ad16	-0.1106817
47	0xbe43abb0	-0.19108462
48	0xbd9e7ef6	-0.077390596
49	0xbda8f518	-0.08249873
50	0xbd086e24	-0.033308163
51	0x3dffc246	0.124882266
52	0x3dd5bac0	0.1043601
53	0x3db7c73a	0.08973546
54	0x3d7e7a6a	0.062128462
55	0x3d95d45b	0.07315894
56	0x3d0302c4	0.03198506
57	0xbcd6943e	-0.026193734
58	0xbb950cc1	-0.0045486395
59	0xbd881723	-0.06645038
60	0xbd423358	-0.047412246
61	0xbca7a605	-0.020464906
62	0x3d6c97ed	0.057762075
63	0x3d9f1738	0.077681005
64	0x3dde3d81	0.10851575
65	0x3d8d6c0d	0.06905375
66	0xbd8611d5	-0.0654637
67	0xbde55966	-0.11198692
68	0xbd18cc10	-0.037303984
69	0x3da35d97	0.07976835
70	0xbd91777c	-0.07102868
71	0xbe080f48	-0.1328708
72	0xbdb8f82c	-0.0903171
73	0xbd0f14f9	-0.03493211
74	0xbe0c6cfe	-0.13713452
75	0x3da997c2	0.08280899
76	0x3b0d1c7a	0.0021531866
77	0x3c650cab	0.013980071
78	0xbe000b3d	-0.12504287
79	0xbe429366	-0.1900154
80	0xbdcdede3	-0.10055139
81	0xbd26e05f	-0.04074132
82	0xbddddff0	-0.10833728
83	0x3d78d497	0.060749616
84	0xbd0fe380	-0.03512907
85	0xbafb7b12	-0.0019186458
86	0x3d858db8	0.06521171
87	0x3e0b9e2b	0.13634555
88	0xbd8df2ee	-0.06931101
89	0xbde5b365	-0.112158574
90	0x3d97fbbf	0.07421064
91	0x3d0d6f51	0.034529988
92	0x3dd75ba3	0.10515525
93	0xbc2c66a4	-0.010522518
94	0xbbd22800	-0.00641346
95	0x3d8c4a2d	0.068500854
96	0x3ddfbc55	0.10924593
97	0x3e202e0e	0.15642568
98	0x3d71695a	0.05893836
99	0x3e11468d	0.14187069
100	0xbe1e92da	-0.15485707
101	0xbe156dcb	-0.14592664
102	0xbe1e2bae	-0.1544635
103	0xbe073279	-0.13202848
104	0xbe212e4e	-0.1574032
105	0x3cc79e6a	0.02436753
106	0xbe065a6b	-0.13120429
107	0xbe0f31b4	-0.13983804
108	0x3c6748f2	0.014116513
109	0xbdf66507	-0.12030988
110	0x3cede2dd	0.02903884
111	0x3d6913d2	0.056903668
112	0x3d6c8880	0.057747364
113	0xbc734bc1	-0.014849604
114	0xbd00811d	-0.031373132
115	0x3e183f8a	0.14867988
116	0x3dc113a7	0.094275765
117	0x3db1be56	0.08678882
118	0x3d81e362	0.06342198
119	0xbcab210f	-0.020889787
120	0x3d2c7497	0.042103376
121	0x3db32d1d	0.08748839
122	0x3dbf2ce8	0.09334737
123	0xbd935972	-0.07194795
124	0x3ca0ee29	0.019644814
125	0x3d47870f	0.048712786
126	0x3c804d0d	0.01566174
127	0x3daca92d	0.08430705
128	0xbd50c29a	-0.050966837
129	0x3d378a83	0.04480983
130	0x3e021846	0.12704572
131	0x3e012e74	0.12615377
132	0x3e2ba4a1	0.1676202
133	0xbcfe72b8	-0.031060562
134	0x3d244e1d	0.040113557
135	0x3e7cab9c	0.24674839
136	0x3e683c64	0.22679287
137	0x3ddd8fb8	0.10818428
138	0x3bf9848c	0.007614678
139	0x3e0512b1	0.12995411
140	0x3e06e78b	0.13174264
141	0x3e2ed42e	0.17073128
142	0x3e57940f	0.21052574
143	0x3cdfbb25	0.027310917
144	0xbd04bcf9	-0.03240678
145	0x3d1bb025	0.03800978
146	0x3d86e03d	0.06585739
147	0x3e42498c	0.18973368
148	0x3e26768f	0.16256164
149	0xbb3e0b36	-0.0028998381
150	0x3e11e021	0.14245655
151	0x3d339d79	0.04385135
152	0xbdc08ae7	-0.094014935
153	0xbda231fc	-0.0791969
154	0x3c5bdd0b	0.0134194
155	0x3db68ced	0.08913598
156	0x3d92f56f	0.07175719
157	0xbd6a4cef	-0.057202276
158	0xbdb29482	-0.08719732
159	0xbe24a331	-0.16077878
160	0x3d1ff811	0.039054934
161	0x3ea8a721	0.3294001
162	0x3cb2b313	0.021813905
163	0xbebf0131	-0.37305596
164	0x3c3671ba	0.011135513
165	0xbc3b1d2f	-0.011420532
166	0x3e01f8ea	0.1269261
167	0xbdb256ce	-0.08707963
168	0xbe9f1dd7	-0.31077453
169	0xbc116f2a	-0.008876601
170	0xbca1b5f6	-0.019740086
171	0xbcdd3c31	-0.02700624
172	0x3d89c3e8	0.06726819
173	0xbc99dc30	-0.018781751
174	0xbdc0eb3e	-0.09419869
175	0x3dbafa15	0.091297306
176	0x3d11b77e	0.035575382
177	0xbda86aac	-0.08223471
178	0xbc75c43c	-0.015000399
179	0xbd5c4b09	-0.053782497
180	0x3e3ccce3	0.18437533
181	0x3e1a1524	0.15047127
182	0xbd5474fb	-0.051869374
183	0xbe1263b1	-0.14295842
184	0xbdab0ef5	-0.08352462
185	0x3d696eea	0.05699054
186	0x3ead5970	0.33857298
187	0xba5b9551	-0.0008376437
188	0xbe561354	-0.2090581
189	0xbccf7e34	-0.025328733
190	0x3e6a882d	0.2290351
191	0x3ea13d30	0.31491995
192	0x3da59262	0.08084561
193	0xbe4fffc5	-0.20312412
194	0xbcde4b0f	-0.0271354
195	0x3e00b45b	0.125688
196	0x3e23bd42	0.15990165
197	0x3cbd7a71	0.023129674
198	0xbcf89c64	-0.03034801
199	0xbca9f6d8	-0.020747587
200	0x3cb6020c	0.022217773
201	0x3dcf4a83	0.10121634
202	0xbe581112	-0.21100262
203	0xbd58d8c5	-0.052941103
204	0xbe06efc3	-0.131774
205	0x3e82832c	0.254907
206	0x3e74eb19	0.23917808
207	0xbe0c6a63	-0.13712458
208	0xbe78af82	-0.24285701
209	0xbda7494f	-0.081682794
210	0x3e2cca80	0.16874123
211	0x3e6c0a0b	0.23050706
212	0xbdb48f03	-0.0881634
213	0xbeb4cf14	-0.35314238
214	0xbdfa904c	-0.12234554
215	0x3da45807	0.080246024
216	0x3e9cc645	0.30620018
217	0xbcb60d82	-0.022223238
218	0xbe62ae7f	-0.22136877
219	0xbd467f98	-0.048461527
220	0x3c4715f9	0.012151235
221	0x3db80a32	0.089863196
222	0x3ca00038	0.019531354
223	0xbe5c6476	-0.21522698
224	0xbcb617a2	-0.022228066
225	0x3e192206	0.14954385
226	0x3e2e040e	0.16993734
227	0x3e0a99f1	0.13535286
228	0xbcc6df47	-0.024276389
229	0x3dde4a16	0.108539745
230	0xbd4a1ec3	-0.049345743
231	0xbcd9e03d	-0.026596183
232	0x3c33a334	0.010964204
233	0xbe03cb4b	-0.12870519
234	0xbddfe9bb	-0.109332524
235	0xbdb62b8c	-0.08895025
236	0xbe225c07	-0.15855418
237	0xbd6cccf7	-0.057812657
238	0xbd1892ef	-0.0372495
239	0x3d6cff98	0.05786094
240	0xbdd75a82	-0.1051531
241	0xbdb6af03	-0.089200996
242	0xbd679f52	-0.056548424
243	0xbd55a593	-0.052159857
244	0x3d987524	0.07444218
245	0xbd7da17f	-0.061921593
246	0xbe1b1f6d	-0.15148707
247	0xbd276748	-0.04086998
248	0xbd62ba2d	-0.055353332
249	0x3e11ce54	0.14238864
250	0xbdad0f00	-0.08450127
251	0xbe27f1b8	-0.16400802
252	0xbd99ad83	-0.07503798
253	0xbe29976f	-0.16561674
254	0xbe579f6f	-0.21056913
255	0xbe254c8c	-0.16142482

conv1.bias f4 [6]
0	0xbdd0ee6e	-0.10201727
1	0x3dab9056	0.08377139
2	0x3ea77165	0.327037
3	0x3e9f82cf	0.31154487
4	0x3ec33492	0.38126045
5	0xbe5ec250	-0.21753812

conv2.weight f4 [16, 6, 5, 5]
0	0x3cdb728e	0.026788022
1	0x3dcbcc5b	0.09951087
2	0x3bc0076b	0.0058602593
3	0x3d057070	0.032577932
4	0xbd0f34ae	-0.03496235
5	0xbd11548f	-0.035481032
6	0x3dbf3fa1	0.09338308
7	0x3c3b4f36	0.01143246
8	0xbd0b8235	-0.034059722
9	0xbd56a07b	-0.05239914
10	0x3e04a67e	0.12954137
11	0x3e0f1cd1	0.13975836
12	0x3c455f44	0.012046639
13	0xbbfc8721	-0.0077065383
14	0x3db825ad	0.08991561
15	0x3d3dc517	0.046330538
16	0x3d9a25e0	0.07526755
17	0xbc898704	-0.016788013
18	0x3d1864b2	0.037205406
19	0x3d611e65	0.054960627
20	0xbd560bad	-0.05225723
21	0xbd8740b1	-0.06604136
22	0x3be8c5ef	0.0071036736
23	0xbd5eb04d	-0.054367352
24	0xbdb06975	-0.08613864
25	0xbe08a0c5	-0.13342579
26	0xbd41e4d7	-0.04733738
27	0xbdef1d9d	-0.1167557
28	0xbd56a303	-0.052401554
29	0xbcf58dc4	-0.029974826
30	0xbd4f0cb5	-0.050549228
31	0xbdc8437c	-0.097784966
32	0x3d34464f	0.044012364
33	0x3cfa8c6b	0.030584535
34	0xbdb5674a	-0.088575915
35	0xbcc0bcac	-0.023527466
36	0x3b83b849	0.0040197712
37	0xbd59f8a4	-0.053215638
38	0xbd81e141	-0.06341792
39	0xbd8fd9fd	-0.07024
40	0x3c0cdc36	0.008597424
41	0x3befc8c4	0.0073176343
42	0xbcc9be22	-0.024626795
43	0xbd287a23	-0.041132104
44	0xbd6c7495	-0.05772837
45	0x3c975850	0.018474728
46	0x3e242c83	0.16032605
47	0x3ddafe70	0.10693061
48	0x3df3fe0d	0.11913691
49	0x3d6c3dfb	0.057676297
50	0x3d183967	0.03716412
51	0x3d0bd524	0.034138814
52	0x3ddd95f0	0.10819614
53	0x3c9d28b1	0.019184442
54	0x3dab50a9	0.08364994
55	0x3e2ce5f0	0.16884589
56	0x3da7cd81	0.08193494
57	0x3ddb6ded	0.10714326
58	0x3c4aac83	0.012370232
59	0x3dc8dc15	0.09807602
60	0x3e8c6cc3	0.2742673
61	0xbd046c8e	-0.03233009
62	0x3c44ea8d	0.012018812
63	0xbd77f35f	-0.06053483
64	0x3df37ad3	0.11888661
65	0x3e537b33	0.20652466
66	0x3cef4dd6	0.02921192
67	0x3df3897b	0.11891457
68	0x3c1a1ded	0.009406549
69	0xbd251620	-0.040304303
70	0xbc9bffb3	-0.019042825
71	0xbd83f222	-0.064426675
72	0x3c80ddd6	0.01573078
73	0xbdc60fcd	-0.096709825
74	0xbda8490f	-0.0821706
75	0x3db8ce26	0.09023695
76	0x3dd1ed95	0.10250393
77	0x3d98f25e	0.07468103
78	0x3e07f777	0.13277994
79	0x3d370c6f	0.044689592
80	0x3cdc24cc	0.026873015
81	0x3dddb94d	0.10826359
82	0xbca8f98d	-0.020626808
83	0x3c3b2831	0.011423157
84	0x3d88ee90	0.06686127
85	0x3cf397ea	0.029735524
86	0x3d54216a	0.05178968
87	0x3d4358a7	0.047691967
88	0xbd10d1a5	-0.035356183
89	0xbbb8d181	-0.005640209
90	0xbbfccda3	-0.0077149435
91	0x3cd94cce	0.026525881
92	0x3c2099d0	0.009802297
93	0xbd721e65	-0.059111018
94	0xbd7752f3	-0.06038184
95	0xbe439f97	-0.19103847
96	0xbd224d3f	-0.03962445
97	0xbe379727	-0.17928754
98	0xbd5d7de2	-0.05407513
99	0xbda61fa5	-0.081115045
100	0x3d123d6c	0.035703108
101	0xbd6fcb9e	-0.058543794
102	0x3c361328	0.011112966
103	0xbd362d43	-0.04447676
104	0x3d6fc56e	0.058537893
105	0x3b11a080	0.002222091
106	0xbc9c7f5f	-0.019103704
107	0x3b60978b	0.0034270014
108	0x3d1c2866	0.038124464
109	0x3d7003f5	0.058597524
110	0xbcdb1c1b	-0.0267468
111	0x3d8be269	0.06830294
112	0x3d525834	0.05135365
113	0xbc353126	-0.011059081
114	0xbd3099ef	-0.043115553
115	0x3bef405e	0.0073013743
116	0xbd8d6c52	-0.06905426
117	0x3bbbd7bc	0.0057325047
118	0xbd8dd24a	-0.06924875
119	0xbdc39d8c	-0.09551534
120	0xbdcdb7c1	-0.10044814
121	0xbd89ff55	-0.06738154
122	0x3c205c0d	0.009787572
123	0xbd855ffb	-0.065124474
124	0xbc12826c	-0.008942228
125	0xbc7c5066	-0.015400028
126	0x3dff7809	0.12474067
127	0x3ddd63cb	0.108100496
128	0x3daf5a3d	0.085621335
129	0xbd94ad1e	-0.07259582
130	0x3c166a29	0.009180584
131	0x3d3c5151	0.045975987
132	0x3ce09f55	0.027419725
133	0x3dd7829f	0.10522961
134	0xbca97eca	-0.02069034
135	0xbbde1c11	-0.006778248
136	0xbd36e8ab	-0.044655483
137	0x3cd191e2	0.025582258
138	0xbbe944c4	-0.007118793
139	0x3d8e086e	0.069352016
140	0x3db4246e	0.08796011
141	0xbd2e378c	-0.042533442
142	0xbc483c64	-0.0122214295
143	0x3dd272fe	0.10275839
144	0x3da12a24	0.07869366
145	0x3cff67a4	0.03117735
146	0x3d188d3b	0.037244063
147	0xbd06a6cd	-0.032873917
148	0xbc2e088a	-0.010622153
149	0x3cad2872	0.02113745
150	0x3d65cb49	0.05610207
151	0xbd643c0d	-0.05572133
152	0xbc81923f	-0.015816806
153	0x3da023e1	0.07819343
154	0x3d98266b	0.07429203
155	0xbd4e9144	-0.050431505
156	0xbc064518	-0.008195184
157	0x3d93cc19	0.07216663
158	0x3cd7cc4d	0.026342535
159	0xbbb79a5d	-0.0056031183
160	0xbcf55a8c	-0.029950403
161	0x3dd4157a	0.10355659
162	0xbd46dae5	-0.048548598
163	0xbd566e21	-0.05235112
164	0x3db94c70	0.090477824
165	0x3d55a7f7	0.052162137
166	0x3d8832bb	0.06650301
167	0xbc1720e6	-0.009224152
168	0xbbb6d8d8	-0.005580049
169	0xbd161a89	-0.0366464
170	0x3d8d461d	0.06898139
171	0x3b6c3d7b	0.0036047387
172	0x3dae6951	0.08516181
173	0x3c92691d	0.017872388
174	0x3c4d7ef9	0.01254248
175	0x3d751dd7	0.05984291
176	0xbd4562fd	-0.048190106
177	0x3d768857	0.060188618
178	0x3d3dfa14	0.04638107
179	0x3dc1e809	0.09468085
180	0x3db31eac	0.087460846
181	0x3ca7e2a2	0.02049381
182	0x3de19448	0.110146105
183	0xbd0e8195	-0.034791548
184	0x3ccba439	0.02485858
185	0x3cc029f5	0.023457507
186	0xbd01dfb5	-0.031707484
187	0xbd2465fa	-0.040136315
188	0xbd11205e	-0.03543126
189	0x3c8a24ac	0.01686319
190	0xbcbe4cd6	-0.023229998
191	0xbcd96292	-0.02653626
192	0x3c95e82b	0.018299183
193	0xbd59febf	-0.05322146
194	0x3c5c7a04	0.013456825
195	0x3d5010f3	0.050797414
196	0xbcfa1786	-0.030528795
197	0x3dc9eaa7	0.098592095
198	0xb9ca8de8	-0.0003863417
199	0xbd8b8e5e	-0.06814264
200	0x3c37b2a6	0.011212027
201	0x3d1f7ce2	0.038937457
202	0x3ce2de05	0.027693758
203	0xbdbdb35d	-0.092627265
204	0xbd9a6a54	-0.07539812
205	0x3dbaf476	0.091286585
206	0xbcd672c0	-0.026177764
207	0xbd63a2cd	-0.05557518
208	0x3b52ab18	0.0032145437
209	0xbdbf5602	-0.093425766
210	0x3cefb95c	0.02926319
211	0xbd919ead	-0.07110343
212	0x3da3892b	0.07985147
213	0x3dc3b6e5	0.09556369
214	0x3926d2a3	0.00015909462
215	0x3e11f665	0.14254148
216	0x3cd8bc92	0.026457105
217	0x3cbd80e5	0.02313275
218	0x3dc499c9	0.09599645
219	0xbc658e51	-0.014010982
220	0x3da0325f	0.078221075
221	0x3cc810cf	0.024422077
222	0x3d6316b3	0.05544157
223	0xbce42846	-0.027851235
224	0x3d908e33	0.07058372
225	0xbd3cabe8	-0.04606238
226	0x3d96f7be	0.07371472
227	0xbbc3ebaf	-0.0059790234
228	0xbca91581	-0.020640137
229	0x3d9f996b	0.07792934
230	0x3d30ba7b	0.04314659
231	0x3c2d8f0f	0.01059319
232	0x3a6c4c74	0.0009014078
233	0x3cbee177	0.02330087
234	0x3ce86d53	0.028372442
235	0x3c86910e	0.01642659
236	0xbd86b314	-0.06577125
237	0x3c9edbf1	0.019391986
238	0xbdafec65	-0.085900106
239	0xbc9d4cfa	-0.019201744
240	0xbcec0321	-0.028810086
241	0xbdadee8e	-0.08492766
242	0xbdaad10c	-0.08340654
243	0x3b2aea43	0.0026079572
244	0xbbc70dca	-0.006074642
245	0x3c147fd4	0.00906368
246	0xbdb49280	-0.08817005
247	0xbdc57b5f	-0.09642672
248	0xbd75d16a	-0.060014166
249	0xbd44ea98	-0.04807529
250	0x3d55227a	0.052034833
251	0xbd5a8512	-0.053349562
252	0xbc314f75	-0.010822167
253	0x3db8eb5e	0.09029268
254	0xb96f2abc	-0.00022808736
255	0xbd57ecfa	-0.052716233

conv2.bias f4 [16]
0	0x3c8ecb60	0.017430961
1	0xbe068fd4	-0.13140804
2	0x3d7bf6c6	0.06151464
3	0x3a09e91c	0.0005260871
4	0xbdb4e8d5	-0.08833472
5	0x3d364e52	0.044508286
6	0x3e7d7294	0.2475074
7	0xbc320fb5	-0.010868003
8	0xbea0b15e	-0.3138532
9	0x3dd3791d	0.10325835
10	0xbd82dd48	-0.06389862
11	0x3d9a943f	0.07547807
12	0x3ceead8f	0.029135494
13	0x3db8fb82	0.09032346
14	0xbc5ce1b1	-0.013481543
15	0x3e2a2e25	0.16619165

fc1.weight f4 [120, 400]
0	0x3cc9e81a	0.024646807
1	0x3c9fb285	0.019494304
2	0x3d3b3c44	0.04571177
3	0xbd45be9e	-0.04827749
4	0xbd100eaa	-0.035170235
5	0xbc3bf99b	-0.011473085
6	0x3c78f130	0.015194222
7	0xbd0639d7	-0.032770004
8	0xbcfdd4a4	-0.030985184
9	0x3cc31da2	0.023817841
10	0xbd460bcf	-0.048351105
11	0x3d1c7616	0.038198553
12	0xbc25c2b1	-0.010117219
13	0x3c814e2f	0.015784351
14	0xba10b10e	-0.0005519547
15	0x3d0cf9ca	0.034417905
16	0x3ce3eaba	0.027821887
17	0xbd392e2a	-0.04521004
18	0x3c6a98f2	0.014318692
19	0xbc138832	-0.009004639
20	0xbc09e2a5	-0.008415853
21	0x3bb1fb13	0.0054315417
22	0x3cfaadae	0.030600395
23	0x3d047be2	0.032344706
24	0x3d4f4e52	0.0506118
25	0x3c53667b	0.012902851
26	0xbc40040f	-0.011719718
27	0x3cd773bc	0.026300304
28	0x3d2fd04c	0.042923257
29	0xbc0554a4	-0.008137856
30	0x3c192bc1	0.009348811
31	0x3d057ca5	0.032589573
32	0xbc49f308	-0.01232601
33	0xbbc17c41	-0.005904705
34	0x3d6f00a2	0.058350213
35	0xbd37c611	-0.044866625
36	0x3d0fdb6a	0.03512136
37	0xbd1f86ca	-0.038946904
38	0xbb34dfd1	-0.0027599225
39	0x3d07d23a	0.033159472
40	0xbd1d890e	-0.038460784
41	0xbb990138	-0.0046693347
42	0xbd0f62b0	-0.035006225
43	0x3ce1d78d	0.027568603
44	0xbca31ae9	-0.019910293
45	0x3c9aea3e	0.018910524
46	0x3d0ea25e	0.034822814
47	0xbcb9b103	-0.022667414
48	0x3d2f43bc	0.042789206
49	0xbc8d5434	-0.017252065
50	0x3d8d3eba	0.0689673
51	0x3d7868fd	0.060647
52	0x3c9fb045	0.019493232
53	0x3d1fda03	0.03902627
54	0x3c291193	0.010319131
55	0x3cb47bf7	0.022031767
56	0xbd4fdaf8	-0.050745934
57	0xbd4e60a8	-0.050385147
58	0xbb13215e	-0.0022450308
59	0xbceecb48	-0.029149666
60	0x3d54e985	0.051980514
61	0x3c8495c7	0.0161847
62	0x3c9e4d15	0.019323865
63	0xbd146ba2	-0.03623546
64	0x3b47a4d3	0.0030463233
65	0x3d80637f	0.062689774
66	0xbd2b2270	-0.04178089
67	0x3d06fe78	0.032957524
68	0xbc1778e6	-0.009245133
69	0xbaf758bd	-0.001887105
70	0x3d6ca443	0.05777384
71	0xbd10961d	-0.03529941
72	0x3d0fb5ae	0.035085373
73	0x3b7113ec	0.0036785556
74	0x3d65cfa7	0.056106236
75	0x3cfb92e3	0.03070969
76	0xbb42b2d2	-0.0029708636
77	0xbcc4ed2b	-0.024038872
78	0xbccad74b	-0.024760863
79	0x3c8e5a30	0.01737699
80	0x3d412e3a	0.047163226
81	0xbd4fb44f	-0.050709065
82	0x3cb2a522	0.021807257
83	0x3c2f536c	0.010701042
84	0x3d3854ea	0.045002855
85	0x3d3f71e6	0.04673948
86	0x3ce7db6a	0.028302867
87	0xbd06473b	-0.032782774
88	0xbd0b19e8	-0.033960253
89	0xbb93c502	-0.004509569
90	0x3d0db5de	0.03459727
91	0x3c788eb9	0.0151707465
92	0xbc24bd4d	-0.010054898
93	0x3d1cf733	0.038321685
94	0x3c93a3d1	0.01802245
95	0xbc3ad26a	-0.011402706
96	0x3d38f19d	0.045152295
97	0x3d231a6e	0.039820127
98	0x3d658187	0.05603173
99	0x3d5661b3	0.052339267
100	0x3c372422	0.011178048
101	0x3cbab07e	0.022789236
102	0x3d49937e	0.049212925
103	0x3ca63e5a	0.020293403
104	0xbd32c5f7	-0.043645825
105	0xbce38ecc	-0.027778052
106	0xba48851b	-0.0007649229
107	0xbd22ff91	-0.03979451
108	0x3cd7d0f1	0.026344748
109	0xbccf5b71	-0.025312157
110	0xbd246dbb	-0.04014371
111	0xbb4bbb08	-0.003108682
112	0xbc4362c2	-0.011925401
113	0x3c6435ca	0.01392884
114	0x3bd477bd	0.0064840005
115	0xbb2233e0	-0.0024750158
116	0xbd25f1a4	-0.04051365
117	0xbcea9e22	-0.028639857
118	0x3d3fc603	0.046819698
119	0xbc250752	-0.010072546
120	0x3cb3f3a5	0.021966765
121	0xbcbd029c	-0.023072533
122	0xba0b43aa	-0.0005312512
123	0xbcc6f4f5	-0.024286726
124	0x3ce97a93	0.02850083
125	0xbc64525f	-0.013935654
126	0xbd02c28e	-0.031923823
127	0xbd02b2fa	-0.031908967
128	0xbd3ce4c3	-0.0461166
129	0x3d30966f	0.043112215
130	0xbc97b604	-0.018519409
131	0xbc885244	-0.01664079
132	0xbd82ba0e	-0.06383143
133	0xbd815008	-0.06314093
134	0xbd3d236d	-0.046176363
135	0xbce87003	-0.028373724
136	0xbd2a0ba0	-0.041514993
137	0xbbbec3bc	-0.005821673
138	0xbc5d28bc	-0.013498481
139	0xbc9c223b	-0.019059291
140	0x3d62314a	0.055222787
141	0x3d404b14	0.0469466
142	0x3d553cd4	0.052059963
143	0x3d5be679	0.053686593
144	0x3d8bcc2b	0.06826051
145	0x3d13cc18	0.03608331
146	0x3d8101c5	0.06299166
147	0x3d36a90c	0.04459481
148	0xbce583ff	-0.028017042
149	0xbc7821b3	-0.015144753
150	0xbd43f13c	-0.04783748
151	0xbd137a14	-0.036005095
152	0xbc24ba38	-0.010054164
153	0xbd1575a8	-0.03648916
154	0x3d13925a	0.036028244
155	0xbc091bad	-0.008368415
156	0x3bba8483	0.005692066
157	0x3d62aab8	0.05533859
158	0x3b75e069	0.0037517792
159	0xbd182348	-0.03714302
160	0xbd10a787	-0.035316017
161	0x3cd291ec	0.025704347
162	0xbbc686d4	-0.0060585532
163	0xb9ef05a2	-0.0004558983
164	0xbcd71d1f	-0.026259003
165	0x3d4b03f7	0.049564328
166	0x3d4cb888	0.04998067
167	0xbccbb7b6	-0.024867874
168	0xbcf48aed	-0.029851401
169	0xbd2c8b45	-0.042125005
170	0xbbb89933	-0.005633497
171	0xbcf896eb	-0.0303454
172	0xbcf852ca	-0.030312914
173	0x3c6bd596	0.014394185
174	0xbd582ab2	-0.052775092
175	0x3d8198d6	0.06327979
176	0x3d28e4f8	0.041233987
177	0x3bb016e4	0.0053738225
178	0x3c4cb00d	0.012493146
179	0x3bdce1dc	0.0067407917
180	0x3cb823c8	0.022478
181	0x3cdc42b9	0.026887285
182	0xbd20a5b0	-0.039220512
183	0x3c81c0e8	0.015839055
184	0x3cd4e9dd	0.025990421
185	0xbcfaa93f	-0.030598281
186	0xbd4b8e60	-0.049696326
187	0xbc9cefd8	-0.019157335
188	0x3c1b2252	0.009468632
189	0xbb34f90a	-0.002761426
190	0xbcac798d	-0.021054054
191	0xbd4c6766	-0.049903296
192	0xbd929811	-0.071579106
193	0xbc299943	-0.010351482
194	0x3d67a8d2	0.056557484
195	0xbc59dda4	-0.013297472
196	0x3d02e808	0.031959563
197	0xbccb2719	-0.024798917
198	0xbd2d774e	-0.042350106
199	0xbbfa21c7	-0.007633421
200	0x3d4f0a27	0.05054679
201	0x3d6e72d0	0.058214962
202	0x3ce5b9d3	0.02804271
203	0x3d5f0fe6	0.05445852
204	0x3d40518a	0.04695276
205	0x3a9cd8f4	0.0011966513
206	0xbca4eb40	-0.020131707
207	0xbcc895b8	-0.024485454
208	0xbd3fdf28	-0.046843678
209	0x3d1b1764	0.037864104
210	0xbcb36687	-0.021899475
211	0xbb2079af	-0.0024486592
212	0xbc2c58a7	-0.010519183
213	0x3ccf508b	0.02530696
214	0xbccc1251	-0.024911078
215	0xbd0a279c	-0.03372918
216	0xbd69ec0b	-0.057109874
217	0xbc24db27	-0.010062016
218	0xbc80ceb6	-0.015723567
219	0x3c97e13e	0.018540021
220	0x3c365a2f	0.0111299
221	0xbc8c63a5	-0.017137358
222	0x3c17df02	0.009269478
223	0xbd578e69	-0.052626047
224	0xbad70310	-0.0016404111
225	0x3d18c72f	0.03729933
226	0xbceafbed	-0.02868458
227	0xbd2585a4	-0.040410653
228	0xbd2fba06	-0.042902015
229	0x3b8fc5c1	0.004387588
230	0x3bd7348a	0.0065675424
231	0xbc99a1e3	-0.018753951
232	0xbcecc455	-0.028902212
233	0x3c00ae49	0.007854053
234	0x3d657f9a	0.056029893
235	0xbca49c00	-0.020093918
236	0xbd07ad27	-0.033124115
237	0xbd010fa2	-0.03150905
238	0x3d40f4ab	0.047108334
239	0x3cb11c05	0.021619806
240	0x3b4da035	0.0031376008
241	0xbd31398e	-0.04326778
242	0x3d1fa4c1	0.03897548
243	0xbc949a3e	-0.018139955
244	0x3d5c5589	0.05379251
245	0xbcb35390	-0.021890432
246	0xbc0aed5a	-0.008479441
247	0xbd09d824	-0.033653393
248	0x3bb041fe	0.0053789606
249	0x3d24c103	0.040223133
250	0x3d1c3adb	0.038142066
251	0xbd18baff	-0.03728771
252	0x3d39fa5e	0.045404784
253	0xbd31ac68	-0.04337731
254	0xbccd745a	-0.025079895
255	0x3c2b6ca8	0.010462917

fc1.bias f4 [120]
0	0x3c29a008	0.010353096
1	0xbb824236	-0.003975178
2	0xbc2b239f	-0.010445504
3	0x3bcbb85c	0.0062170457
4	0xbc33a8d5	-0.010965546
5	0xbacdb76f	-0.0015694926
6	0xbd87819e	-0.066165194
7	0x3c8add50	0.016951233
8	0x3c43b573	0.011945116
9	0x3d891abf	0.066945545
10	0xbd323326	-0.04350581
11	0xbc01c76c	-0.007921081
12	0x3d519607	0.051168468
13	0x3cc7c3b6	0.024385314
14	0xbcd89869	-0.026439862
15	0x3d0f0c49	0.034923825
16	0xbbcf952a	-0.0063349204
17	0xbcbe70af	-0.023247091
18	0xbaf00493	-0.001831191
19	0x3d38a526	0.045079373
20	0x3bdba52f	0.006703041
21	0x3dddd8a2	0.10832335
22	0xbd3a8707	-0.04553893
23	0xbcca590b	-0.024700662
24	0x3db3e31c	0.08783552
25	0xbd8dfb38	-0.06932682
26	0x3d1bf813	0.03807838
27	0x3cd3796e	0.025814738
28	0x3d938e52	0.0720488
29	0x3d318102	0.043335922
30	0xbc50afca	-0.012737224
31	0x3d0cf31b	0.03441153
32	0x3d541c80	0.051784992
33	0x3cedbf13	0.029021775
34	0xbd4c7d07	-0.049923923
35	0x3d0a89b7	0.03382274
36	0xbcb476f8	-0.022029385
37	0x3be17b81	0.006881178
38	0xbd82f95e	-0.06395219
39	0xbd34619c	-0.0440384
40	0xbd179cd3	-0.037014794
41	0x3d68dccb	0.05685119
42	0x3bcba9fa	0.006215331
43	0x3d810158	0.062990844
44	0x3da0d821	0.07853723
45	0x3d1a5e50	0.0376876
46	0xbd69bd31	-0.057065193
47	0xbd15cbdf	-0.03657138
48	0x3d0abc9d	0.033871282
49	0xbcaaae50	-0.020835072
50	0x3c952c27	0.01820953
51	0x3d9d8d54	0.07692972
52	0x3d10ca72	0.035349317
53	0x3d731aca	0.05935172
54	0x3ccea16e	0.02522346
55	0xbc7fa50b	-0.015603314
56	0x3dd0ef9f	0.10201954
57	0x3d4b86ed	0.049689222
58	0xbb887e25	-0.004165428
59	0xbd3a7808	-0.045524627
60	0xbc05e4a2	-0.008172186
61	0xbd05dd09	-0.0326815
62	0x3c3fa5e7	0.011697269
63	0x3a3e1803	0.0007251503
64	0x3d2dd09a	0.042435266
65	0x3d0972fa	0.033556916
66	0x3d04df54	0.032439545
67	0x3d3c1bc8	0.04592493
68	0xbc61253a	-0.013741786
69	0xbcad89d4	-0.021183886
70	0x3c58c774	0.013231147
71	0x3ca2c3f4	0.019868828
72	0xbcc4990f	-0.023998765
73	0x3d5d4287	0.054018524
74	0xbd15b588	-0.036550075
75	0x3d96e8b3	0.073686026
76	0xbdd34e33	-0.1031765
77	0xbd09f6f4	-0.03368278
78	0xbd724fd0	-0.059158146
79	0x3d188c83	0.037243377
80	0xbd79a013	-0.060943674
81	0xbb3b5682	-0.0028585498
82	0x3d684b02	0.056712158
83	0xbd159869	-0.036522303
84	0xbc1c265c	-0.00953063
85	0x3c92a655	0.017901579
86	0x3dd5c867	0.10438614
87	0x3d0b17a5	0.033958096
88	0x3c849a54	0.01618687
89	0xbd2734aa	-0.04082171
90	0xbc2e8b6d	-0.010653359
91	0x3e10b38c	0.14130992
92	0xbc8acf24	-0.016944475
93	0x3ca1e913	0.019764459
94	0x3d00fc07	0.031490352
95	0x3c9033f7	0.017602904
96	0xbce07b0d	-0.027402425
97	0xbce7dbc1	-0.028303029
98	0x3d618d57	0.055066433
99	0xbd8557a1	-0.065108545
100	0xbd05e9e9	-0.032693777
101	0x3d2e638c	0.042575404
102	0x3db76662	0.08955075
103	0x3d9ead48	0.077478945
104	0x3d830ea1	0.063992746
105	0x3dd87945	0.10570005
106	0x3d8eaf4b	0.06967028
107	0x3dcc0bf5	0.09963218
108	0x3cef633f	0.029222129
109	0x3bc9fa73	0.006163889
110	0x3d59a7b1	0.05313844
111	0x3e1200c8	0.1425811
112	0x3d309058	0.043106407
113	0x3d47612b	0.04867665
114	0x3bd3a04b	0.0064583174
115	0x3c83bb26	0.01608045
116	0xbd57a96a	-0.0526518
117	0x3d6c70e3	0.057724845
118	0x3cc88b39	0.024480449
119	0xbc9d748d	-0.019220615

fc2.weight f4 [84, 120]
0	0xbd6dfa9e	-0.058100335
1	0xbdaebe6f	-0.08532416
2	0xbda7ac5b	-0.08187171
3	0xbd8c4e7f	-0.068509094
4	0x3d811dab	0.06304487
5	0xbcad361f	-0.021143971
6	0xbd15f1da	-0.0366076
7	0x3c462a95	0.012095113
8	0xbba763e6	-0.0051083444
9	0xbda4bdd9	-0.08044023
10	0x3d54952f	0.051900085
11	0x3c0c1ad3	0.008551317
12	0x3d335693	0.043783735
13	0xbc9e659f	-0.019335566
14	0xbd8b75c5	-0.06809572
15	0xbd8c38cb	-0.0684677
16	0xbcb86fa4	-0.022514172
17	0xbd86e968	-0.065874875
18	0x3db9d714	0.09074226
19	0xbd9bb0c7	-0.07602077
20	0x3d946ff5	0.072479166
21	0xbd74d9bb	-0.059777956
22	0xbca35fc4	-0.019943126
23	0x3d96dedb	0.07366725
24	0xbd1c23c4	-0.038120046
25	0xbd41cd67	-0.047315028
26	0xbc95732f	-0.0182434
27	0x3c8380ca	0.016052622
28	0x3d84ffc3	0.06494095
29	0x3dbe50cb	0.09292754
30	0xbd0f2ab7	-0.034952845
31	0xbd9fffe9	-0.07812483
32	0x3db6b8db	0.08921977
33	0xbccc610c	-0.02494862
34	0x3d421853	0.04738648
35	0xbd397465	-0.045277018
36	0xbd43440a	-0.04767231
37	0x3c878bbc	0.016546123
38	0xbdbf6ec4	-0.09347299
39	0x3ca4cbb4	0.020116664
40	0x3c94ff49	0.018188136
41	0x3dc43631	0.09580649
42	0xbde27bb6	-0.11058752
43	0xbc009720	-0.007848531
44	0xbce19998	-0.02753906
45	0xbcd4b657	-0.025965853
46	0x3d1944d4	0.037419155
47	0xbd8881a2	-0.066653505
48	0xbd377bcc	-0.044795796
49	0xbd254cd6	-0.04035648
50	0x3d48165d	0.048849452
51	0x3de66099	0.11248893
52	0x3d47e2ed	0.048800398
53	0xbca4f36b	-0.020135602
54	0xbd980ada	-0.07423945
55	0x3dd17050	0.102265
56	0x3deec669	0.116589375
57	0xbd3f18d6	-0.046654545
58	0x3c3d918f	0.011570348
59	0x3d6dddf6	0.058073007
60	0x3d11092a	0.03540913
61	0xbd2be5e4	-0.041967288
62	0x3cb11227	0.021615101
63	0xbbe0c05a	-0.0068588676
64	0x3d3464da	0.044041492
65	0x3c860259	0.016358541
66	0x3d74f93c	0.059808
67	0x3dab5f91	0.08367837
68	0x3c988e7f	0.018622635
69	0x3ced7f74	0.028991438
70	0xbda85d5c	-0.08220932
71	0x3d2d0ee0	0.042250514
72	0x3d18ff0c	0.037352607
73	0xbb672da3	-0.0035275004
74	0x3d935b4f	0.0719515
75	0x3da29963	0.079394124
76	0x3d94f231	0.07272757
77	0xbd8b1112	-0.06790365
78	0xbdbef6f2	-0.09324445
79	0xbb949466	-0.004534292
80	0x3ae4cd77	0.0017456253
81	0xbc1cf09c	-0.00957885
82	0xbcef98cb	-0.029247662
83	0xbcc7a058	-0.02436845
84	0x3d9b39f7	0.07579415
85	0x3b3fb6dc	0.002925328
86	0xbc99dc6a	-0.01878186
87	0xbd9c87b5	-0.076430716
88	0x3d3ecaf5	0.046580274
89	0xbd5b9110	-0.05360514
90	0xbd8d27bc	-0.06892344
91	0x3d47bf2a	0.048766293
92	0x3d51e648	0.051245004
93	0x3b546eed	0.003241475
94	0x3d85692a	0.06514199
95	0xbd9fc8cd	-0.078019716
96	0xbd8e4ca8	-0.06948215
97	0x3d2e2571	0.042516176
98	0x3d2e84c0	0.04260707
99	0x3dcc5a1f	0.09978127
100	0x3dbb3dae	0.09142624
101	0xbc2992e1	-0.01034996
102	0xbdb0743c	-0.0861592
103	0xbcbf7004	-0.023368843
104	0x3db1ffdf	0.08691382
105	0x3d1afa38	0.037836283
106	0x3d93fea8	0.07226306
107	0xbd9dc78a	-0.07704075
108	0x3df901ff	0.12158584
109	0xbd1dbef8	-0.0385122
110	0xbd9a6942	-0.075396076
111	0xbbbc20cb	-0.005741214
112	0x3d82fa2f	0.06395375
113	0xbbb3acde	-0.005483254
114	0xbd5267b8	-0.051368445
115	0xbdbcb208	-0.09213644
116	0xbd5ab20b	-0.05339245
117	0x3c0d7c92	0.008635657
118	0x3da3fe78	0.080075204
119	0x3d653c55	0.05596574
120	0xbc10ca8b	-0.0088373525
121	0xbb403715	-0.0029329706
122	0xbd1cbb9b	-0.038264852
123	0x3ca7874e	0.02045026
124	0x3d3977f3	0.045280408
125	0x3d5be496	0.053684793
126	0xbdaf0b15	-0.085470356
127	0xbd877f4d	-0.066160776
128	0x3cdd06c2	0.026980761
129	0xbd466220	-0.048433423
130	0x3cfb02f1	0.030641051
131	0xbc8aa6cb	-0.016925236
132	0xbcaad68b	-0.020854255
133	0x3d90796a	0.07054408
134	0x3cc84943	0.024448996
135	0x3d9b79b4	0.075915724
136	0x3d5abfdb	0.053405624
137	0x3cd8ecfa	0.026480187
138	0x3c840743	0.016116744
139	0xbd446d33	-0.047955703
140	0x3d5b981b	0.053611856
141	0xbd16dc6b	-0.0368313
142	0xbdba01d4	-0.0908238
143	0x3d1cb46a	0.038257994
144	0x3a1ae947	0.0005909395
145	0xbd7a5467	-0.06111565
146	0xbd503fd2	-0.050842114
147	0xbd9f6b43	-0.077841304
148	0xba5e8337	-0.00084881805
149	0x3cd9017e	0.02648997
150	0x3d8d6615	0.06904236
151	0x3d0deaf3	0.034647893
152	0x3b8278e1	0.003981695
153	0x3b7a0072	0.0038147238
154	0x3cad32d7	0.021142406
155	0xbd81ea7c	-0.063435525
156	0xbcc60875	-0.024173955
157	0x3c994b3f	0.018712638
158	0xbd6e9356	-0.05824598
159	0x3d0704ad	0.032963444
160	0xbdaf8dfd	-0.08572004
161	0x3cc09516	0.02350859
162	0x3d068724	0.032843724
163	0xbdabd90f	-0.0839101
164	0xbdb30aa3	-0.08742263
165	0x3cd2bb08	0.02572395
166	0xbd8fc2f1	-0.07019604
167	0xbd7d4c7a	-0.06184051
168	0xbda1f8c2	-0.07908775
169	0x3d5e675d	0.054297794
170	0xbdbecbd0	-0.09316218
171	0xbcc6890b	-0.024235269
172	0x3c90a26d	0.017655576
173	0x3c5176b0	0.012784645
174	0x3d78be91	0.060728613
175	0x3d94b0f4	0.07260314
176	0x3c13fc1e	0.009032277
177	0xbdbb613e	-0.09149407
178	0x3c027540	0.007962525
179	0xbc31ca90	-0.010851517
180	0xbd4906b3	-0.049078654
181	0xbcd2518f	-0.025673656
182	0xbcbd6f24	-0.023124285
183	0xbd7895bb	-0.06068967
184	0x3c3bfffd	0.011474607
185	0xbd67c417	-0.05658349
186	0xbd5342b1	-0.051577274
187	0xbceb52f4	-0.028726079
188	0xbd053d09	-0.03252891
189	0xbc58ef5d	-0.013240662
190	0xbd10fbc7	-0.035396364
191	0xbd46d53b	-0.048543196
192	0x3d8f5f6c	0.07000622
193	0x3d6e3a84	0.058161274
194	0x3d4033dd	0.04692446
195	0x3d024007	0.031799342
196	0xbd8f27db	-0.06990024
197	0x3c8088b9	0.015690194
198	0x3db6e137	0.08929675
199	0xbd75f03f	-0.06004357
200	0xbd01e682	-0.03171397
201	0x3d8f9524	0.07010868
202	0x3b9932d0	0.004675247
203	0x3cf0a5b0	0.029375881
204	0xbd8d30c5	-0.06894068
205	0x3d9a6679	0.07539076
206	0xbd2aee78	-0.041731328
207	0x3c24c493	0.010056633
208	0x3d721ac8	0.05910757
209	0x3da447d9	0.08021516
210	0xbd2eb71e	-0.042655103
211	0xbd86e81a	-0.065872386
212	0xbc2a49fe	-0.010393618
213	0x3d956b63	0.07295873
214	0xbac376b2	-0.0014912693
215	0xbd8d7c62	-0.0690849
216	0x3d052279	0.03250358
217	0x3d692242	0.056917436
218	0x3d542812	0.051796027
219	0xbd08faa8	-0.03344217
220	0x3d1efc5a	0.03881488
221	0x3d2e9cb4	0.042629912
222	0xbd43086b	-0.04761545
223	0x3c726cb2	0.014796423
224	0x3db3c179	0.08777136
225	0xbdb9f9ea	-0.090808704
226	0xbd697817	-0.056999292
227	0x3c2e3981	0.010633827
228	0x3da02784	0.07820037
229	0xbd85cb82	-0.06532957
230	0xbdb62287	-0.08893304
231	0x3bb7f3b6	0.0056137694
232	0x3c7e5b07	0.015524632
233	0xbd5f1f45	-0.05447318
234	0x3cc9769e	0.024592694
235	0xbb4e4390	-0.0031473376
236	0xbdaa334e	-0.08310567
237	0xbcbc256a	-0.02296706
238	0xbd20732f	-0.039172348
239	0xbd262f31	-0.04057235
240	0x3df04c28	0.11733276
241	0x3e237d1d	0.15965696
242	0xbdb97315	-0.09055153
243	0x3ce3552a	0.02775057
244	0x3d0dc0c3	0.03460766
245	0xbd7ae09f	-0.06124937
246	0x3d90aadb	0.07063838
247	0x3b836b7c	0.004010616
248	0x3df4f9ba	0.11961694
249	0xbc3702a8	-0.011170067
250	0xbc311956	-0.010809263
251	0xbda2bc35	-0.07946054
252	0x3a58542b	0.0008252288
253	0x3dcca0b7	0.099915914
254	0x3c8eb9a6	0.017422508
255	0x3d7b6e73	0.06138463

fc2.bias f4 [84]
0	0x3e06d084	0.1316548
1	0xbda15727	-0.07877951
2	0x3d0b00b4	0.033936217
3	0x3e0976b5	0.1342419
4	0xbced11e4	-0.028939195
5	0xbd59b386	-0.053149723
6	0x3de86004	0.113464385
7	0x3df32b50	0.118734956
8	0x3d1a63bf	0.03769278
9	0x3d8e25b1	0.06940783
10	0xbd3acf7e	-0.045608036
11	0x3e34c451	0.17653014
12	0xbddfe248	-0.109318316
13	0x3da52e7e	0.08065508
14	0xbd4dc276	-0.05023428
15	0x3c3682bd	0.011139569
16	0x3e50086d	0.20315714
17	0x3d1564ae	0.03647297
18	0x3dc102e7	0.09424382
19	0x3c45d9bb	0.012075837
20	0x3e0a09d6	0.13480315
21	0x3da4ed27	0.08053046
22	0x3cfd1e90	0.030898362
23	0xbac0c404	-0.0014706855
24	0x3d688957	0.056771602
25	0x3e04ace4	0.12956578
26	0xbcdc545e	-0.026895698
27	0xbc46676f	-0.012109621
28	0x3e1a3233	0.15058212
29	0x3d09cc80	0.033642292
30	0x3cd87889	0.026424663
31	0xbdb67a3d	-0.08910034
32	0x3d88f111	0.06686605
33	0xbdcc9aed	-0.09990487
34	0xbc33b5d7	-0.010968647
35	0x3c081b32	0.008307265
36	0xbd789615	-0.060690004
37	0xbd5e84b2	-0.054325767
38	0x3e0e79ea	0.13913694
39	0xbe0beba3	-0.13664107
40	0x3e0aa707	0.13540278
41	0x3d1482d4	0.03625758
42	0x3e20bc9a	0.15696946
43	0xbd1fdce7	-0.03902903
44	0x3dad513f	0.08462762
45	0xbe086c52	-0.13322571
46	0xbd475efe	-0.048674576
47	0x3d3c4fd2	0.04597456
48	0x3dfbbe6b	0.12292179
49	0xbace64db	-0.001574661
50	0x3e01609c	0.1263451
51	0xbd873a27	-0.066028886
52	0xbdb03029	-0.08602936
53	0x3d93272f	0.07185208
54	0x3dacb907	0.08433729
55	0xbd86fe48	-0.06591469
56	0xbda82253	-0.08209672
57	0x3d600bff	0.05469894
58	0x3c3128c2	0.01081294
59	0x3b539c4e	0.003228921
60	0x3d0676cb	0.032828134
61	0xbd646483	-0.055759918
62	0xbd4c1f5f	-0.049834605
63	0x3d16d911	0.036828104
64	0x3d0ccc62	0.034374602
65	0x3d8ad7f5	0.06779472
66	0xbd254a54	-0.040354088
67	0xbc8ed197	-0.017433925
68	0x3e012428	0.12611449
69	0xbdc30f56	-0.095244095
70	0xbd6dd706	-0.05806639
71	0xbd673872	-0.056450315
72	0x3dbe6384	0.09296325
73	0xbcfbb565	-0.030726144
74	0x3deb84b3	0.1149992
75	0xbd3f1d9d	-0.0466591
76	0xbc39ac19	-0.011332535
77	0xbd036c82	-0.032085903
78	0x3d9ab9cb	0.075549684
79	0x3d751775	0.059836823
80	0x3cfb7f92	0.030700479
81	0x3d358f7d	0.044326294
82	0xbd2416a9	-0.040060673
83	0x3ccec534	0.025240518

fc3.weight f4 [10, 84]
0	0xbe1a9e66	-0.15099487
1	0x3d6df435	0.058094222
2	0x3c3da2f4	0.011574496
3	0xbde0760d	-0.109600164
4	0xbd5ec16a	-0.054383673
5	0x3c4fc889	0.012682089
6	0xbc56b45c	-0.013104524
7	0xbcd01624	-0.025401182
8	0x3d455179	0.0481734
9	0x3cf45d15	0.029829541
10	0x3dec2302	0.11530115
11	0x3e257e44	0.16161448
12	0xbdce18c8	-0.100633204
13	0x3e27f014	0.16400176
14	0xbe0d64a5	-0.13807924
15	0xbcef4a89	-0.029210346
16	0xbd0c4e3e	-0.034254305
17	0x3d96ca47	0.073628
18	0x3dfc7bc7	0.12328296
19	0x3c291c8c	0.0103217475
20	0xbcea187f	-0.028576134
21	0xbd17f5b7	-0.037099566
22	0x3d9db3b0	0.07700288
23	0x3d8b78ed	0.06810174
24	0xbe4576e5	-0.19283636
25	0x3dfd98cb	0.123826586
26	0x3dc4e1f7	0.09613412
27	0x3d362149	0.044465337
28	0x3cc546cc	0.02408161
29	0xbd6ace9e	-0.05732595
30	0xbdbf0f66	-0.09329109
31	0xbc82baf9	-0.015958296
32	0x3e206ff7	0.15667711
33	0xbdc66bc4	-0.096885234
34	0x3cd2b9aa	0.025723297
35	0xbd870607	-0.065929465
36	0xbd1de7c1	-0.038551096
37	0xbdea16e0	-0.11430144
38	0xbcaa4044	-0.020782597
39	0xbdfe05ca	-0.12403448
40	0x3d15d925	0.03658404
41	0x3deb9046	0.11502127
42	0xbb974049	-0.0046158177
43	0x3d78b3dd	0.060718406
44	0x3c81a049	0.0158235
45	0xbdaaf72a	-0.08347924
46	0x3dc67fcd	0.09692345
47	0x3cd9e057	0.026596231
48	0x3ca80560	0.020510375
49	0xbbc9a4e9	-0.006153692
50	0xbe092bce	-0.13395616
51	0x3d2fec31	0.04294986
52	0xbd5b735c	-0.053576812
53	0x3b036dfb	0.0020054567
54	0xbcaffbbc	-0.021482341
55	0x3ad59d24	0.0016297442
56	0xba8d31a9	-0.0010772246
57	0x3d03d5de	0.03218638
58	0x3e00217d	0.12512775
59	0x3d4bab00	0.049723625
60	0x3dc9b97a	0.0984983
61	0x3dde3f17	0.10851877
62	0xbdc24df8	-0.094875276
63	0x3d848b9f	0.06471943
64	0x3d0c919b	0.034318548
65	0xbdd11de8	-0.10210782
66	0xbc9d08eb	-0.019169291
67	0x3cc0e2a4	0.02354557
68	0xbde52d8d	-0.11190329
69	0x3d80efe4	0.062957555
70	0xbdd3127f	-0.10306262
71	0xbd2d018d	-0.042237807
72	0x3e9cdc99	0.30637053
73	0x3c366df7	0.011134616
74	0x3e9bdc9e	0.30441755
75	0xbbf80adf	-0.0075696553
76	0xbd0dc632	-0.034612842
77	0xbd245b3a	-0.040126063
78	0x3dee4914	0.11635032
79	0x3df64601	0.12025071
80	0xbe5d01ae	-0.21582672
81	0x3ca90ddf	0.020636497
82	0xbde2f5ec	-0.11082062
83	0xbd2f06ff	-0.04273128
84	0xbdd29e76	-0.1028413
85	0x3ddb7388	0.10715395
86	0x3e1d58ef	0.15365957
87	0xbe9ef7d1	-0.31048444
88	0xbe68138e	-0.2266371
89	0xbd8a52a6	-0.06754045
90	0xbd87fee7	-0.06640416
91	0xbdb99a86	-0.09062676
92	0xbb6defbb	-0.003630622
93	0x3e280509	0.16408171
94	0xbce40315	-0.0278335
95	0xbe2ee725	-0.17080362
96	0x3d01bb78	0.031672925
97	0xbe53191e	-0.2061505
98	0xbddd827f	-0.10815906
99	0xbb85a74e	-0.004078782
100	0xbe014873	-0.12625293
101	0xbd7b5f73	-0.061370324
102	0xbd6764eb	-0.056492727
103	0x3c45b6b2	0.012067484
104	0xbb065ed4	-0.00205033
105	0x3c7a7d3b	0.015288646
106	0xbd71ec72	-0.059063382
107	0x3d9a00fd	0.0751972
108	0xbd93c488	-0.0721522
109	0xbe330d59	-0.1748556
110	0xbe2e6133	-0.17029266
111	0x3eba3af2	0.36373097
112	0xbdb45097	-0.08804434
113	0xbd2b6259	-0.04184184
114	0xbe2eac2f	-0.1705787
115	0x3d8831f7	0.06650155
116	0xbcc5409c	-0.02407866
117	0xbd0f6e57	-0.035017338
118	0xbdd627af	-0.10456788
119	0xbd3d9ac7	-0.046290185
120	0xbd1ab0d7	-0.037766304
121	0x3c5826a4	0.013192806
122	0xbcaac19e	-0.020844277
123	0x3e0b8e20	0.13628435
124	0xbe3b767b	-0.18306915
125	0xbd8c3dbe	-0.06847714
126	0xbd09ac33	-0.033611488
127	0xbaf7fbea	-0.0018919681
128	0xbd8f50ca	-0.06997831
129	0x3ea05d27	0.3132107
130	0xbba37a6d	-0.0049889595
131	0xbdcdc299	-0.10046882
132	0x3c9253e7	0.017862273
133	0xbd1d2b05	-0.038371105
134	0xbe856ea7	-0.26060984
135	0x3df439ef	0.119251125
136	0xbb1d7695	-0.002402698
137	0xbdbb5404	-0.09146884
138	0xbe3cdcbf	-0.18443583
139	0x3d4d9846	0.050194047
140	0xbd906269	-0.0705002
141	0xbe069c9b	-0.13145678
142	0xbd721d6b	-0.059110086
143	0xbd1f4bab	-0.038890522
144	0x3c20ff90	0.009826556
145	0xbd59d7ba	-0.05318425
146	0xbca330ca	-0.019920725
147	0xbe27c378	-0.16383159
148	0x3e59fc23	0.21287589
149	0xbd82ed6b	-0.0639294
150	0x3d09ec4d	0.03367262
151	0x3e20309f	0.15643547
152	0xbd6bfe42	-0.057615526
153	0x3dda9dad	0.106746055
154	0x3c527816	0.0128460135
155	0x3e361b5a	0.17783871
156	0x3d729eb3	0.05923338
157	0xbdaa966c	-0.08329472
158	0x3e307c4e	0.17234918
159	0xbd9a6a50	-0.07539809
160	0x3d040e0c	0.03223996
161	0xbd2ce44e	-0.042209916
162	0x3d0591eb	0.03260986
163	0x3dea9c14	0.11455551
164	0x3dbf96a8	0.09354907
165	0xbda5899f	-0.0808289
166	0xbd2c6513	-0.04208858
167	0x3e253ae3	0.16135745
168	0xbc11f78a	-0.008909116
169	0x3d396a4c	0.04526739
170	0xbe2666dd	-0.16250177
171	0x3e31d67d	0.17366977
172	0xbd8f9e80	-0.07012653
173	0xbdc7b856	-0.09751956
174	0x3d3c5382	0.045978077
175	0x3e40c1d1	0.18823935
176	0xbd835484	-0.064126045
177	0x3c3ffa89	0.011717447
178	0xbd9d67d7	-0.076858215
179	0x3e04b309	0.12958921
180	0xbe111b69	-0.14170612
181	0x3da3077e	0.079604134
182	0xbda483e1	-0.080329664
183	0xbe13a434	-0.14418107
184	0xbcc6f6b3	-0.024287557
185	0x3d1d6b1f	0.038432237
186	0x3e0036fe	0.12520978
187	0x3d3783ef	0.044803556
188	0x3e42affb	0.19012444
189	0x3dea116d	0.11429105
190	0x3e02d7f9	0.127777
191	0xbd675408	-0.056476623
192	0xbdb34d2b	-0.08754953
193	0x3cb6eb2f	0.022328941
194	0x3e1a826d	0.15088816
195	0xbdcf822c	-0.1013225
196	0x3d8b51e7	0.06802731
197	0xbdf9310f	-0.1216756
198	0x3db736fc	0.08946034
199	0x3dd22850	0.10261595
200	0xbd975f09	-0.073911734
201	0x3d56f6ae	0.052481346
202	0xbd5ea36a	-0.054355063
203	0x3dd00140	0.101564884
204	0xbd5ef1da	-0.054429866
205	0x3e1e3c2e	0.15452644
206	0x3e6979ee	0.22800419
207	0xbdb994f3	-0.09061613
208	0x3e17504f	0.14776729
209	0xbd9247f5	-0.07142631
210	0x3e2cc617	0.1687244
211	0xbda2c83f	-0.0794835
212	0xbb63ec35	-0.0034778242
213	0x3c90797a	0.01763605
214	0x3d83c194	0.064334065
215	0xbd582b68	-0.05277577
216	0x3d99e08d	0.07513533
217	0xbda167bd	-0.07881115
218	0x3d32613e	0.04354977
219	0x3dd82a62	0.10554959
220	0x3dd8acec	0.10579857
221	0x3d3db5f0	0.046316087
222	0x3e225a0b	0.15854661
223	0xbd8fe4a4	-0.070260316
224	0xbdc0d1a1	-0.094149835
225	0x3dd8bb47	0.10582595
226	0xbcd33214	-0.025780715
227	0xbd8be11d	-0.06830046
228	0xbde7a1d7	-0.113101654
229	0xbcdd7528	-0.027033404
230	0xbcdc3cd5	-0.026884476
231	0xbdb43003	-0.0879822
232	0x3c8ed2d8	0.017434523
233	0x3e1c74fb	0.15279
234	0xbd822d4e	-0.063562974
235	0xbddbf586	-0.10740189
236	0x3d8d0baf	0.06886994
237	0x3d30eaea	0.04319278
238	0xbb95a5d1	-0.004566886
239	0xbe176651	-0.14785124
240	0x3e3e9428	0.18611205
241	0x3d86437c	0.065558404
242	0xbcfb0994	-0.030644216
243	0x3dab4ab1	0.08363856
244	0x3d648a52	0.055795975
245	0xbdc17d5a	-0.09447737
246	0x3d8a2f10	0.06747258
247	0x3e51d09a	0.20489731
248	0xbdd01b0b	-0.10161408
249	0x3df748d8	0.12074441
250	0xbbe33ecf	-0.0069349776
251	0xbcc8f37a	-0.024530161
252	0x3dc90e1d	0.09817145
253	0xbc958897	-0.018253608
254	0x3bb07f11	0.0053862412
255	0x3d8b16e3	0.06791475

fc3.bias f4 [10]
0	0x3c7e1147	0.015507049
1	0xbe4a4c57	-0.19755684
2	0x3e3f0eaf	0.18657945
3	0x3de43533	0.111429594
4	0x3e0e8341	0.13917257
5	0x3afcaefb	0.0019278222
6	0x3d092ce0	0.03349006
7	0xbe51ff55	-0.20507558
8	0x3e0e696b	0.13907401
9	0xbe8a9c0e	-0.27072185
