models/archive/simpleModel_testing.pth (torch, 593263 bytes, 8 tensors)

conv1.weight f4 [6, 3, 5, 5]
0	0x3d033595	0.03203352
1	0xbe040890	-0.12893891
2	0xbcb56fe2	-0.022148076
3	0xbde5062e	-0.11182819
4	0xbd96a3ab	-0.07355436
5	0xbe2f0e99	-0.17095412
6	0xbe6ec5dd	-0.23317666
7	0xbe9a83fa	-0.30178815
8	0xbea2c66e	-0.31792015
9	0xbe04e46e	-0.12977764
10	0xbe270efd	-0.16314311
11	0x3cb0e019	0.021591233
12	0xbe14f93c	-0.145482
13	0xbaba9057	-0.001423369
14	0xbd8670f9	-0.065645166
15	0x3e3f1ab1	0.18662526
16	0x3e91498f	0.28376433
17	0x3e1f0578	0.1552943
18	0x3e2a9e52	0.16661957
19	0x3d937d6c	0.07201657
20	0x3e64bfbe	0.22338769
21	0x3ea1fcb6	0.31638116
22	0x3e7a0abf	0.24418162
23	0x3e7d1ac2	0.24717239
24	0x3dff47b1	0.12464846
25	0x3de937a1	0.113875635
26	0xbcc58a1f	-0.024113713
27	0x3d7492e9	0.059710417
28	0xbcd299de	-0.025708135
29	0xbc31adee	-0.010844691
30	0xbe352b92	-0.17692402
31	0xbe30ccbd	-0.17265601
32	0xbea80d1d	-0.32822505
33	0xbe5ffb41	-0.2187319
34	0xbda4de83	-0.08050253
35	0x3cd4052a	0.025881369
36	0xbd846ee0	-0.0646646
37	0xbcc861fc	-0.024460785
38	0xbe124e91	-0.14287783
39	0xbd6c55cb	-0.057699006
40	0xbd9673b2	-0.07346286
41	0x3da69758	0.08134335
42	0x3e394638	0.18093193
43	0x3dd84202	0.10559465
44	0xbd917270	-0.07101905
45	0x3e3aa2c3	0.18226151
46	0x3dcf3213	0.10116973
47	0x3d4158fa	0.047203995
48	0xbdcd0099	-0.100098796
49	0xbd127e27	-0.03576484
50	0x3e46d2cb	0.19416349
51	0x3e0816cd	0.13289948
52	0xbc958fd0	-0.018257052
53	0xbd68ec58	-0.05686602
54	0x3e466cbf	0.19377421
55	0x3d822897	0.06355398
56	0xbe6dc818	-0.23220861
57	0xbe80c3d3	-0.25149402
58	0xbd1c87fd	-0.038215626
59	0xbcf14a0d	-0.029454255
60	0xbd8bc1d6	-0.06824081
61	0xbd91c589	-0.07117755
62	0x3d1bfaf9	0.038081143
63	0x3d55c3ca	0.052188672
64	0xbbd80dd3	-0.006593445
65	0x3d98ea37	0.07466548
66	0x3ddfc234	0.10925713
67	0x3e417b2c	0.18894643
68	0x3dc079f5	0.093982615
69	0x3bdee540	0.006802231
70	0x3d5aed62	0.053449042
71	0x3d86fa2e	0.06590687
72	0x3e32efb6	0.17474255
73	0x3e3703a4	0.17872483
74	0x3d3a79cd	0.045526315
75	0x3e84674d	0.25860062
76	0x3e91c386	0.28469485
77	0x3ea59005	0.3233644
78	0x3ed6f8b6	0.41986626
79	0x3e32587c	0.17416567
80	0x3e513250	0.20429349
81	0x3eb838ee	0.35980934
82	0x3eabadfc	0.33531177
83	0x3e8ab120	0.2708826
84	0x3e3b5de0	0.18297529
85	0x3e4c871d	0.19973417
86	0x3ea596a3	0.3234149
87	0x3e4c8a15	0.19974549
88	0x3da1d0eb	0.07901176
89	0xbd0f4e2a	-0.034986652
90	0x3d9084b3	0.0705656
91	0xbcbfc5ec	-0.023409806
92	0xbd3c509d	-0.045975316
93	0xbe4282b9	-0.18995179
94	0xbe76158c	-0.24031657
95	0xbe94343f	-0.2894611
96	0xbebe0afe	-0.3711776
97	0xbea3b079	-0.31970575
98	0xbeb20e52	-0.3477655
99	0xbeffeeaa	-0.49986774
100	0xbdc66aea	-0.09688361
101	0xbd5b3036	-0.053512774
102	0xbd17295f	-0.03690469
103	0xbe2fa647	-0.17153274
104	0xbe4955c6	-0.19661626
105	0xbe71faf4	-0.23630887
106	0xbe35012d	-0.1767623
107	0xbe330180	-0.17481041
108	0xbe9f4727	-0.31108972
109	0xbea31d73	-0.31858405
110	0xbe48c496	-0.19606242
111	0xbdc0f490	-0.094216466
112	0xbe797e04	-0.24364477
113	0xbe82b61a	-0.25529557
114	0xbeb52059	-0.35376242
115	0xbdac4633	-0.08411827
116	0xbabfc36c	-0.0014630384
117	0xbbf67602	-0.007521392
118	0xbe1c302e	-0.15252754
119	0xbd6f42af	-0.058413204
120	0x3d5cb62a	0.053884663
121	0x3cc89ad7	0.024487896
122	0xbde9b885	-0.114121474
123	0xbe31c270	-0.17359328
124	0xbe1b792d	-0.15182944
125	0xbd2cf5c6	-0.042226575
126	0xbbeb5442	-0.007181675
127	0x3d213101	0.039353374
128	0xbe387e00	-0.18016815
129	0x3d638145	0.055543203
130	0xbe0df6e5	-0.13863714
131	0xbe4a3caa	-0.19749704
132	0xbe8b37a4	-0.27190888
133	0xbe70fe13	-0.23534422
134	0xbe48cf77	-0.19610392
135	0xbc6ea304	-0.014565233
136	0xbda8fcf6	-0.082513735
137	0x3d3a0faf	0.045425113
138	0xbd0e46c4	-0.034735456
139	0xbc274917	-0.010210297
140	0x3dd86750	0.1056658
141	0x3e83b50b	0.25724062
142	0x3e7044bc	0.2346372
143	0x3e5b7ed3	0.21435098
144	0x3e5cd018	0.21563756
145	0x3e54cdcb	0.20781629
146	0x3e94b3bd	0.2904338
147	0x3e721b40	0.23643208
148	0x3dcb47a0	0.09925771
149	0x3e821f73	0.2541462
150	0x3d6426b7	0.055700984
151	0x3ddc6740	0.10761881
152	0x3d6ef3c3	0.058337938
153	0x3da03fdf	0.078246824
154	0x3cc531a5	0.024071524
155	0x3a13e7c8	0.0005642143
156	0xbd36eedf	-0.0446614
157	0xbd820ca0	-0.06350064
158	0xbe0b0685	-0.13576706
159	0x3b80fdd6	0.0039365096
160	0x3bb1bc4a	0.005424057
161	0xbdb386c8	-0.08765942
162	0xbca8dcfa	-0.020613182
163	0xbca52ee6	-0.020163964
164	0xbccdb4b9	-0.02511059
165	0x3d102c34	0.035198405
166	0xbda20528	-0.0791114
167	0xbc7ce397	-0.015435121
168	0x3d84a672	0.064770594
169	0x3d1d5676	0.038412534
170	0x3d3dc5ea	0.046331324
171	0x3e23eb01	0.16007616
172	0xbd1cecf8	-0.03831193
173	0x3e05b7f3	0.13058452
174	0x3d532f6e	0.051558904
175	0xbd97fe04	-0.074214965
176	0x3ca24a6b	0.019810876
177	0xbe2a0e51	-0.16607024
178	0xbe25790a	-0.16159454
179	0xbe0245cd	-0.1272194
180	0xbbb1b4c7	-0.0054231617
181	0x3d0d9784	0.034568325
182	0xbd97b4ae	-0.07407509
183	0x3c0dcfaf	0.008655473
184	0xbdb8c8f7	-0.09022706
185	0xbe3e4816	-0.18582186
186	0x3d254988	0.040353328
187	0x3c96a8c4	0.01839102
188	0xbcd8bb1e	-0.026456412
189	0xbd2f408b	-0.042786162
190	0xbdf0464b	-0.11732157
191	0xbd39bab2	-0.045344062
192	0xbd56c0e7	-0.05243006
193	0xbda699f6	-0.081348345
194	0xbd04f3a9	-0.032458935
195	0xbdd12587	-0.10212236
196	0xbdc2c599	-0.09510345
197	0xbc6b74a1	-0.014371068
198	0xb83c0110	-4.4823682e-05
199	0x3d1bed63	0.038068186
200	0x3e514a9b	0.20438616
201	0x3e937132	0.287973
202	0x3e2d1dce	0.16905901
203	0xbdb0ee25	-0.086391725
204	0xbe37160e	-0.17879507
205	0x3d7cf22d	0.061754394
206	0x3e880850	0.26568842
207	0x3eb6952d	0.35660687
208	0x3e2c111f	0.16803406
209	0xbd470076	-0.048584424
210	0x3d10cfe4	0.03535451
211	0x3e729c86	0.23692521
212	0x3e540f87	0.20709048
213	0x3e2bbe4c	0.16771811
214	0xbde1202d	-0.10992465
215	0xbdd24a8b	-0.10268124
216	0x3e3b9e14	0.18322021
217	0x3e46101f	0.19342087
218	0x3e188453	0.14894228
219	0x3baa59f3	0.005198711
220	0xbe349518	-0.17635
221	0x3d1d5ae0	0.038416743
222	0x3e14c219	0.14527167
223	0x3d4aa2f5	0.049471814
224	0xbe20c5eb	-0.157005
225	0xbdb680e1	-0.089113005
226	0x3d453193	0.04814298
227	0xbd147f0c	-0.036253974
228	0xbda730a6	-0.08163576
229	0x3e90e127	0.28296778
230	0xbe406d71	-0.18791749
231	0x3ecc214d	0.39869156
232	0xbe80038e	-0.25002712
233	0xbeff3159	-0.49842337
234	0x3eca8974	0.39557993
235	0xbe077a3b	-0.13230221
236	0x3eee623f	0.4655933
237	0xbe183d38	-0.14867103
238	0xbf3c9d26	-0.7367729
239	0x3eeb486c	0.4595369
240	0x3cb763b2	0.022386406
241	0x3eb4afa8	0.35290265
242	0xbe3c4d19	-0.18388785
243	0xbed83ce9	-0.4223397
244	0x3eae5dff	0.34056088
245	0xbcb9724e	-0.022637513
246	0x3d5e475f	0.054267284
247	0xbd32b578	-0.043630093
248	0xbdc4b44f	-0.09604704
249	0x3d6f0678	0.05835578
250	0xbc37bfb3	-0.011215138
251	0x3e027111	0.12738444
252	0xbe3be97c	-0.18350786
253	0xbeabea6f	-0.33577296
254	0x3e3ba4ef	0.18324636
255	0x3e0dbfcd	0.13842697

conv1.bias f4 [6]
0	0xbf0a2bc3	-0.53973025
1	0xbecdd2c6	-0.4019987
2	0x3e4bc132	0.19897917
3	0xbec699a7	-0.38789102
4	0x3a3ab3ac	0.000712211
5	0xbed46a2b	-0.4148725

conv2.weight f4 [12, 6, 5, 5]
0	0x3c09f1d8	0.008419476
1	0xbe041937	-0.12900244
2	0xbd1de55b	-0.03854881
3	0xbd6835ce	-0.056691937
4	0x3d589359	0.052874897
5	0x3e343f6d	0.1760232
6	0x3d817207	0.06320577
7	0x3d15429c	0.036440477
8	0x3d3cc162	0.04608286
9	0x3e12a5fd	0.14321132
10	0x3d8837fd	0.06651304
11	0x3dbb08c2	0.0913253
12	0x3c3b080f	0.011415496
13	0x3df066b2	0.117383376
14	0x3df9ca73	0.12196817
15	0x3e0cc97b	0.13748734
16	0x3e4fdb03	0.2029839
17	0x3d106471	0.03525204
18	0x3d40e5ae	0.04709404
19	0x3c66b198	0.014080428
20	0x3bb12b18	0.0054067485
21	0xbdc1a846	-0.09455924
22	0xbdd0da32	-0.101978675
23	0xbdf88b12	-0.121359006
24	0x3c8d1fb4	0.017227031
25	0xbde2bed5	-0.110715546
26	0xbe32211a	-0.1739544
27	0xbe13bf14	-0.1442836
28	0xbda3716a	-0.079806164
29	0xbe5b8d01	-0.21440507
30	0xbde69995	-0.11259762
31	0xbd9a6b7a	-0.07540031
32	0xbd967290	-0.0734607
33	0xbe187bcf	-0.14890979
34	0xbe39a780	-0.18130302
35	0x3d012afe	0.03153514
36	0x3c6d19d4	0.01447149
37	0x3e0534b1	0.13008381
38	0x3e282aed	0.16422625
39	0x3e0af3da	0.13569584
40	0x3e1a960c	0.15096301
41	0x3ddc5c52	0.10759796
42	0x3e27326d	0.1632783
43	0x3e2fc88b	0.17166345
44	0x3e736bc4	0.23771578
45	0xbd391a11	-0.045190874
46	0xbd942e16	-0.07235353
47	0xbda57238	-0.08078426
48	0xbd9acbd0	-0.075584054
49	0xbc5350d9	-0.012897694
50	0xbd142a64	-0.03617324
51	0xbc945ca4	-0.01811058
52	0xbcfc043a	-0.030763734
53	0x3c56c930	0.01310949
54	0x3dd02bc3	0.10164597
55	0x3d8f5403	0.06998446
56	0xbbd28f16	-0.0064257486
57	0x3d1d5c87	0.03841832
58	0x3be1ded3	0.006893018
59	0x3c721a25	0.014776741
60	0xbcdabac3	-0.026700383
61	0x3d333879	0.04375503
62	0x3c5bec6a	0.013423065
63	0x3d0ec91b	0.034859758
64	0xbe14fea2	-0.1455026
65	0x3d8f9ff0	0.070129275
66	0x3c7b3530	0.015332505
67	0xbd38496a	-0.044991888
68	0xbdf16a45	-0.117878474
69	0xbe4299ed	-0.1900403
70	0x3d2641d3	0.04059012
71	0xbc5b05ea	-0.013368109
72	0xbdb5c09b	-0.08874627
73	0xbde045cf	-0.10950815
74	0xbe9146c5	-0.28374305
75	0xbd27084f	-0.040779408
76	0x3e16f83f	0.14743136
77	0x3e238e85	0.15972336
78	0x3e588969	0.21146168
79	0x3d9b57cf	0.075851075
80	0x3d8ace94	0.06777683
81	0xbd41e555	-0.04733785
82	0xbcdd2d82	-0.026999239
83	0xbdaf2d87	-0.085536055
84	0xbe055b5c	-0.13023132
85	0xbdad00c9	-0.084474154
86	0xbe540fd6	-0.20709166
87	0xbe7e8a48	-0.24857438
88	0xbe8ff814	-0.28118956
89	0xbe7b1c69	-0.24522556
90	0xbeb2c80b	-0.34918246
91	0xbeab7628	-0.33488584
92	0xbec3d632	-0.38249356
93	0xbe9c93bd	-0.30581465
94	0xbe58e2de	-0.21180293
95	0xbe4c82ac	-0.19971722
96	0xbe7f8949	-0.24954714
97	0xbe9e5597	-0.30924675
98	0xbe7defc6	-0.24798498
99	0xbe77c3f8	-0.2419585
100	0xbd9043c9	-0.07044179
101	0xbca1a32e	-0.01973113
102	0x3c898f4d	0.016791964
103	0x3d35e881	0.044411186
104	0xbd4d0a6d	-0.05005877
105	0xbdecea1d	-0.11568091
106	0xbd8f90e1	-0.07010055
107	0xbd62ec9a	-0.055401422
108	0xbce93ba4	-0.028470822
109	0xbd59f4b3	-0.05321188
110	0x3cc1c6c3	0.023654347
111	0xbde3ef1b	-0.1112959
112	0x3d1de712	0.038550444
113	0x3c4b056b	0.012391428
114	0x3d321228	0.043474346
115	0x3dd981c8	0.10620457
116	0x3d0644ed	0.032780576
117	0x3d36b8d6	0.044609867
118	0x3e6024d9	0.21889056
119	0x3d8180af	0.063233726
120	0x3de6b2d4	0.112645775
121	0x3dafde7e	0.08587359
122	0x3debfbe1	0.115226515
123	0xbca33a04	-0.019925125
124	0xbdb68ad5	-0.08913199
125	0x3d729853	0.0592273
126	0x3e276de1	0.16350509
127	0x3dfe2436	0.124092504
128	0x3db44dd5	0.08803908
129	0x3daed01d	0.08535788
130	0x3df1b071	0.11801232
131	0xbd2a0732	-0.04151077
132	0xbb822467	-0.0039716247
133	0x3dece852	0.11567749
134	0x3cd9c715	0.026584188
135	0x3e2a2c27	0.16618405
136	0x3d73d019	0.05952463
137	0xbcd1f312	-0.0256286
138	0xbdd28a81	-0.10280324
139	0x3c849207	0.016182913
140	0x3e350169	0.17676319
141	0xbd9c8e59	-0.07644338
142	0x3cdf1194	0.027230062
143	0xbd7903e8	-0.06079474
144	0x3d87ff0d	0.06640444
145	0x3e2ea6f4	0.17055875
146	0x3df58001	0.119873054
147	0x3dd228bd	0.102616765
148	0x3e13a3f0	0.14418006
149	0x3e26ab71	0.16276337
150	0xbd7b6989	-0.061379943
151	0xbd5dc81a	-0.05414591
152	0xbde99593	-0.11405482
153	0xbe00a5f6	-0.12563309
154	0xbe1cb08f	-0.15301727
155	0x3cb6ca61	0.022313299
156	0xbd5717c1	-0.052512888
157	0xbe48e596	-0.1961883
158	0x3c5ba9f4	0.013407219
159	0x3ba2f0e7	0.0049725655
160	0x3cf612f2	0.03003833
161	0xbd4be545	-0.049779195
162	0xbd00f5c7	-0.03148439
163	0xbc68d56e	-0.014211042
164	0x3e36d3a5	0.17854173
165	0x3b811478	0.0039392076
166	0xbce872ec	-0.028375112
167	0xbd18ab33	-0.037272643
168	0xbd013aac	-0.031550094
169	0x3d5c8801	0.05384064
170	0x3e127ab7	0.14304624
171	0xbc037a9d	-0.008024839
172	0x3bc9d1b1	0.0061590304
173	0x3e1fe983	0.15616421
174	0x3c148d34	0.009066869
175	0xbda03551	-0.07822669
176	0xbddda5d4	-0.10822645
177	0xbdc2a2c3	-0.095037006
178	0xbce73ece	-0.02822819
179	0xbd8780d1	-0.06616367
180	0xbd6876a6	-0.056753777
181	0xbd72fe61	-0.059324626
182	0xb935da8a	-0.00017342917
183	0xbd9ac582	-0.07557203
184	0x3d9c7c7c	0.07640931
185	0xbe111eb9	-0.14171876
186	0xbe315a89	-0.17319693
187	0xbe1127e6	-0.14175376
188	0xbdf134c3	-0.117776416
189	0x3d7191b6	0.05897685
190	0xbda8163a	-0.082073644
191	0xbe1bca4f	-0.15213893
192	0xbe150d7d	-0.14555927
193	0xbd9b235d	-0.075751044
194	0x3d1a7c10	0.03771597
195	0xbda7d0d6	-0.08194129
196	0xbdcde8aa	-0.10054143
197	0xbe21e381	-0.15809442
198	0xbb3761f4	-0.0027981969
199	0x3da42c54	0.080162674
200	0x3cf0cbdd	0.029394085
201	0x3b852c2b	0.004064103
202	0x3b759806	0.0037474646
203	0x3dba42a6	0.090947434
204	0x3d92b16e	0.07162748
205	0x3d1af6a1	0.03783286
206	0xbde0ec62	-0.109825864
207	0xbd5d2c03	-0.05399705
208	0xbdc836fe	-0.09776114
209	0xbe065838	-0.1311959
210	0x3a7d7b1c	0.0009669529
211	0xbdb21fc1	-0.08697463
212	0xbd487af3	-0.04894538
213	0xbdabdb07	-0.083913855
214	0xbd8db9ac	-0.0692018
215	0x3e30450b	0.17213838
216	0x3bd0daeb	0.0063737533
217	0xbd80653e	-0.062693104
218	0xbd340919	-0.04395399
219	0xbd187d16	-0.037228666
220	0x3de68b1d	0.112570025
221	0x3df87be2	0.12133004
222	0x3d5f4ac4	0.05451466
223	0xbc6c3128	-0.014416017
224	0x3bae7d9d	0.005325033
225	0xbebdb57e	-0.3705253
226	0xbe8cdf45	-0.2751409
227	0xbe982144	-0.2971288
228	0xbec41c3a	-0.38302785
229	0xbeab3279	-0.33436945
230	0xbeb76e55	-0.35826364
231	0xbea31f2b	-0.31859717
232	0xbe9f0da2	-0.3106509
233	0xbecf3a7d	-0.4047431
234	0xbe06b70d	-0.13155766
235	0xbe97875a	-0.29595453
236	0xbe856335	-0.2605225
237	0xbe8667f4	-0.26251185
238	0xbe4be9a2	-0.19913343
239	0xbd6c4f8d	-0.057693053
240	0xbe6cd2f8	-0.23127353
241	0xbe0399a5	-0.1285158
242	0xbe1fa055	-0.15588506
243	0xbe31211a	-0.17297783
244	0x3d850672	0.0649537
245	0xbe16d55b	-0.14729826
246	0xbe0fff2f	-0.14062189
247	0x3b36729a	0.0027839304
248	0x3e3373ce	0.17524645
249	0x3d8abaf0	0.06773937
250	0x3d8c6488	0.06855112
251	0x3c298210	0.010345951
252	0xbd43581f	-0.04769146
253	0x3d5b7f14	0.053587988
254	0x3cba56a2	0.022746388
255	0x3d9f293d	0.077715375

conv2.bias f4 [12]
0	0x3da20a75	0.07912151
1	0x3f8e2ddf	1.1107749
2	0x3d8ef350	0.06980002
3	0x3e03e6ab	0.12880962
4	0x3e86a214	0.2629553
5	0x3f636ab5	0.88834697
6	0x3e45a4c1	0.1930113
7	0xbe503731	-0.20333554
8	0x3e054ad5	0.13016827
9	0x3f7916ca	0.973004
10	0xbf2248f2	-0.63392556
11	0xbeadbcd0	-0.33933115

fully_connected1.weight f4 [120, 1200]
0	0x3cf1c2a1	0.029511752
1	0x3ca3cee1	0.019996108
2	0xbc860037	-0.016357524
3	0x3c34589e	0.011007456
4	0x3c9d46c9	0.019198792
5	0x3b1c0b28	0.002381036
6	0x3cd374c2	0.02581251
7	0x3c6730a3	0.014110717
8	0x3c88bb9a	0.016691018
9	0xbc84cc89	-0.016210811
10	0xbb3b6478	-0.002859382
11	0xbc9d73e9	-0.01922031
12	0xba98581f	-0.0011622942
13	0xbc9ed5a3	-0.01938898
14	0x3bec5583	0.007212342
15	0x3c8acd0d	0.016943479
16	0xbcb246ad	-0.021762216
17	0xbb649736	-0.0034880168
18	0xbccc9030	-0.024971098
19	0xbc88d4f1	-0.0167031
20	0x3c832085	0.016006717
21	0x3cece7ad	0.028919065
22	0xbc96b6c0	-0.018397689
23	0x3c5d336c	0.013501029
24	0x3cbb3e24	0.02285678
25	0xbac0223a	-0.0014658638
26	0x3cbd8297	0.02313356
27	0xbcc343d6	-0.023836058
28	0xbbb99301	-0.005663276
29	0x3b13616f	0.0022488495
30	0xbc34d2ab	-0.011036555
31	0xbcf4738f	-0.029840259
32	0xbc134dfc	-0.008990761
33	0x3d0801d3	0.033204865
34	0x3cba7a37	0.022763355
35	0x3a90a93a	0.0011036762
36	0x3bd7d1aa	0.006586273
37	0x3b0480c3	0.002021835
38	0xbbafeb27	-0.0053686085
39	0x3b3c964b	0.0028776105
40	0xbba3ec4d	-0.0050025345
41	0xbd109ef8	-0.035307854
42	0xba0004fb	-0.00048835546
43	0xb975dc51	-0.00023447095
44	0x3bb4af78	0.0055140816
45	0xbce2e5d0	-0.027697474
46	0xbb6da401	-0.0036261084
47	0xbbba39f5	-0.0056831785
48	0xbc48db3d	-0.012259302
49	0x3ab6fa31	0.0013960061
50	0xbcbb897a	-0.022892702
51	0xb9a5be24	-0.00031612918
52	0x3cbb0051	0.0228273
53	0x3cfa74f4	0.030573346
54	0x3c4b5d63	0.012412402
55	0xbcd35947	-0.025799407
56	0x3c9be652	0.019030724
57	0x3bab593b	0.005229143
58	0x3c178a91	0.009249345
59	0xbca4dffb	-0.020126333
60	0xbca643c5	-0.020295987
61	0xbc77c69c	-0.015123036
62	0x3cca4380	0.02469039
63	0x3a25110f	0.00062967924
64	0x3cf9f712	0.03051332
65	0x3b5be5ad	0.0033553645
66	0x3c429d28	0.011878289
67	0x3c287a7b	0.010283108
68	0x3c4a1655	0.012334426
69	0xbc277e72	-0.010223018
70	0x3cc73e85	0.024321804
71	0x3ca0bb18	0.019620463
72	0x3d21b72e	0.039481334
73	0x3d30ed19	0.043194864
74	0x3b88ee28	0.004178781
75	0x3c265351	0.0101517
76	0xbc38051c	-0.011231687
77	0xbc13e2fc	-0.009026285
78	0x3cbb59ca	0.022869963
79	0x3c52a0ac	0.01285569
80	0xbcbb0ffe	-0.022834774
81	0xbc6fce71	-0.014636622
82	0xbc6ac4ff	-0.014329194
83	0x3ce0a28b	0.027421257
84	0x3b1d40f6	0.0023995019
85	0x3c2a0a6b	0.01037846
86	0x3ccdc951	0.02512041
87	0x3cc09bcb	0.023511788
88	0xbc25f0ec	-0.010128241
89	0xbb26d923	-0.0025459013
90	0xbc96151f	-0.018320618
91	0x3c3b96c6	0.011449521
92	0x3ccb8ae2	0.024846498
93	0x3c1b845e	0.009492008
94	0xbb893b7d	-0.0041879998
95	0x3b791b93	0.003801082
96	0x3a17017a	0.0005760413
97	0x3bbca773	0.005757266
98	0x3ce83688	0.028346315
99	0xbba8ade2	-0.0051476816
100	0xbcbc405d	-0.02297991
101	0xbd25cf84	-0.040481105
102	0xbcf635f3	-0.030055022
103	0xbcbefe6c	-0.023314677
104	0xbccfa2af	-0.025346128
105	0x3bf4b6ca	0.007468079
106	0xbd08f936	-0.03344079
107	0xbb329b3b	-0.002725317
108	0x3c4ced5e	0.012507765
109	0xbbfa9177	-0.0076467353
110	0x3cf9284e	0.030414727
111	0xbd091581	-0.033467773
112	0xbb578535	-0.0032885794
113	0xbc9a1904	-0.018810757
114	0xbc8e0f2f	-0.017341224
115	0xbd13ed25	-0.03611483
116	0xbcca2157	-0.0246741
117	0x3c9571d4	0.018242754
118	0x3cafcb4b	0.021459242
119	0xbc85f4c1	-0.01635206
120	0x3d047a6d	0.032343317
121	0x3c98e4f2	0.018663857
122	0xbc0a4ac1	-0.008440674
123	0xbd244fe5	-0.040115256
124	0xbbad4cb8	-0.0052886866
125	0x3bf167f9	0.007367131
126	0xbc831aba	-0.016003955
127	0xbcc20352	-0.023683224
128	0xbcb86405	-0.02250863
129	0x3c83c4d0	0.016085058
130	0x3c094ea6	0.008380568
131	0x3c692be2	0.014231654
132	0x3c6a9d17	0.01431968
133	0xbcb65d59	-0.022261309
134	0xbcc27843	-0.023738986
135	0x3bd2c852	0.0064325714
136	0x3c103ba7	0.008803285
137	0x3bde7784	0.0067891497
138	0xbcb0fcd7	-0.021604938
139	0x3c907cc9	0.017637627
140	0x3ce92f43	0.028464919
141	0xbb553c96	-0.0032537333
142	0x3cbe5732	0.023234937
143	0x3b4f17a6	0.003159979
144	0xbc99943f	-0.018747447
145	0x3c0ac3a8	0.0084695
146	0xb9955926	-0.00028485915
147	0xbabb48ce	-0.0014288665
148	0x3c8f30f8	0.017479405
149	0x3d001a69	0.031275187
150	0x3bb003b1	0.005371534
151	0x3b95aadc	0.004567487
152	0x3bc72173	0.0060769855
153	0xbca63d00	-0.020292759
154	0xbcdcea4b	-0.026967188
155	0xbbc0dcdd	-0.005885704
156	0x3c122a96	0.008921286
157	0xbc90a728	-0.017657831
158	0xbcb38066	-0.021911811
159	0xbca4261d	-0.020037705
160	0x3c5b5a7f	0.013388275
161	0xbca32f04	-0.01991988
162	0x3cb2cfce	0.021827605
163	0x3ce63d66	0.028105449
164	0x3cb920af	0.022598593
165	0xb83bb32a	-4.4751134e-05
166	0x3bad4ca7	0.0052886787
167	0x3c6b6ea6	0.014369642
168	0x3ce2b933	0.0276762
169	0x3ca5de1d	0.020247513
170	0xbcd7bc49	-0.026334899
171	0xbc769758	-0.015050732
172	0x3bfe26d6	0.0077560944
173	0x3ad8c1c7	0.0016537242
174	0x3ca1cfe3	0.019752448
175	0x3c4b2a66	0.012400245
176	0x3b8c1280	0.0042746663
177	0x3cae2da4	0.021261998
178	0xbb9f491e	-0.004861011
179	0xbb0654e6	-0.002049738
180	0xbc6cad08	-0.014445551
181	0x3c174e80	0.009235024
182	0x3b4870f0	0.0030584894
183	0x3cc53969	0.024075227
184	0x3cb54141	0.022125842
185	0x3b8c48b0	0.004281126
186	0x3c91c9bc	0.01779639
187	0xbcd23e68	-0.025664523
188	0x3c9f3e09	0.01943876
189	0x3c928fc3	0.017890817
190	0x3cdc93c0	0.026925921
191	0x3d0871e2	0.033311732
192	0x3d09d5cf	0.03365117
193	0x3d1782ae	0.03698986
194	0x3cd145df	0.025546012
195	0x3d20c127	0.039246704
196	0x3c38eb16	0.011286518
197	0x3c9e99ce	0.01936045
198	0x3ccf8122	0.02533013
199	0x3c8fff6a	0.017577846
200	0xbd219a92	-0.03945405
201	0xbb93f18b	-0.004514878
202	0xbc99dda0	-0.018782437
203	0xbd0f87e4	-0.035041705
204	0xbcbced20	-0.023062289
205	0xbcfec5c7	-0.031100167
206	0x3be97c41	0.007125408
207	0x3b3b67c0	0.0028595775
208	0x3af883b6	0.0018960151
209	0xbce28686	-0.027652036
210	0xbc941293	-0.018075263
211	0xbcbce34c	-0.023057602
212	0xbc306e4e	-0.010768486
213	0xbc8ce018	-0.0171967
214	0xb9b6fc7e	-0.00034901866
215	0xbc968989	-0.018376129
216	0xbccb0979	-0.02478479
217	0x3cd08962	0.025456134
218	0xbcb29848	-0.021801129
219	0xbc4eb2a1	-0.012615831
220	0xbc63dacc	-0.013907146
221	0xbca22a31	-0.019795509
222	0xbc3a5385	-0.011372452
223	0xbcb1280b	-0.02162554
224	0x3b0820f3	0.0020771592
225	0xbcb67d40	-0.02227652
226	0x3cf0729c	0.029351525
227	0xbbe6f363	-0.007048057
228	0x3c7f7f12	0.015594261
229	0x3c7264c4	0.014794532
230	0x3c8774d9	0.01653521
231	0x3bbf66b3	0.0058411
232	0x3caa17d2	0.020763312
233	0xbc9d32fe	-0.019189354
234	0xbc9cda14	-0.019146957
235	0xbc6ddfbd	-0.014518675
236	0xbc5f078e	-0.013612641
237	0x3b393582	0.0028260653
238	0xbc4d979b	-0.012548353
239	0x3ba750d4	0.005106071
240	0xbbaf598f	-0.0053512524
241	0x3c9cf571	0.019160004
242	0xbcaeb845	-0.021328101
243	0x3cc2913d	0.023750896
244	0x3c030004	0.007995609
245	0xbc82f962	-0.015988056
246	0xbcd145fa	-0.025546063
247	0xbc4f0cee	-0.01263736
248	0xbcfe59ea	-0.031048734
249	0x3cdbb42c	0.026819311
250	0xbcd78e75	-0.026313046
251	0x3c94a8b7	0.018146856
252	0xbc6c14cb	-0.014409254
253	0x3bb01115	0.00537313
254	0x3cbf516d	0.023354257
255	0x3c093799	0.008375072

fully_connected1.bias f4 [120]
0	0x3d0dbd75	0.03460451
1	0x3c3110ff	0.010807275
2	0xbd2c0b09	-0.04200271
3	0xbd90ed7c	-0.070765465
4	0xbcca3fcc	-0.024688624
5	0xbdb996e8	-0.09061986
6	0x3c20685b	0.009790505
7	0xbb9aee00	-0.004728079
8	0xbd893300	-0.066991806
9	0xbd1d4726	-0.03839793
10	0xbdf46eb0	-0.119351745
11	0x3bd54733	0.0065087317
12	0xbc93b17f	-0.018028973
13	0xbd6b37f3	-0.057426404
14	0x3ce6059c	0.028078847
15	0x3d9b03fd	0.0756912
16	0xbd91cce9	-0.07119162
17	0xbcef223d	-0.02919113
18	0x3e1dbe2d	0.15404578
19	0x3d70b7a2	0.058768876
20	0xbcc0a82c	-0.02351769
21	0x3e2aef57	0.16692863
22	0x3c81d5f7	0.015849097
23	0x3d9eeecd	0.077603914
24	0x3c842c54	0.016134419
25	0x3c830b14	0.015996493
26	0xbd8b042e	-0.067879066
27	0xbbc31952	-0.005953946
28	0x3dd96579	0.106150575
29	0x3d666c3e	0.05625557
30	0x3de34e8a	0.110989645
31	0x3aafd1c0	0.0013413951
32	0xbc30a90c	-0.010782491
33	0xbc1180db	-0.008880819
34	0xbce11dd5	-0.027480045
35	0xbe34a2d4	-0.17640239
36	0x3e03f3e9	0.12886013
37	0x3bd426ca	0.0064743506
38	0x3ca0d2a5	0.019631693
39	0xbdf8eca0	-0.12154508
40	0x3d961676	0.07328503
41	0xbc6213c5	-0.013798659
42	0x3cbc779a	0.02300625
43	0x3d78e977	0.060769524
44	0x3b55f749	0.0032648614
45	0x3d25b680	0.04045725
46	0xbd9644af	-0.07337319
47	0xbdd409c8	-0.10353428
48	0x3d8cb282	0.06869985
49	0xbe120034	-0.1425789
50	0x3d32b195	0.043626387
51	0x3e19cf5a	0.15020505
52	0xbcdcd70c	-0.026958011
53	0xbc7893bc	-0.015171941
54	0x3d41be53	0.047300648
55	0x3c7f5c42	0.015585961
56	0xbd58f288	-0.05296567
57	0xbe117e01	-0.14208223
58	0xbd3c2477	-0.045933213
59	0x3d874674	0.06605235
60	0xbd08264a	-0.03323964
61	0x3de678c7	0.11253505
62	0x3d092b3a	0.03348849
63	0xbdc3dafa	-0.09563251
64	0xbccb5cf5	-0.024824599
65	0xbd0a5ebb	-0.03378175
66	0x3cf66b41	0.03008044
67	0xbc6f2953	-0.014597255
68	0x3a976d89	0.001155303
69	0x3d59715b	0.05308662
70	0x3cff1d35	0.031141857
71	0xbd3d4826	-0.046211384
72	0x3d34856b	0.04407255
73	0x3c336226	0.010948693
74	0x3d32ff35	0.043700416
75	0xbd8af42d	-0.06784854
76	0xbcf3742c	-0.029718481
77	0xbcfe9006	-0.031074535
78	0x3c8b4052	0.016998444
79	0xbd802a0e	-0.06258021
80	0x3d6ea733	0.058264922
81	0x3c8a2f52	0.016868267
82	0x3dcc70f5	0.09982482
83	0xbe052372	-0.13001803
84	0xbcf9465d	-0.03042906
85	0xbcd2a3c4	-0.025712855
86	0x3d597774	0.053092435
87	0x3cfec8eb	0.031101665
88	0xbd4cd755	-0.050010044
89	0xbcdfd5e8	-0.027323678
90	0xbdcf2a57	-0.101154976
91	0x3da2f065	0.07956008
92	0xbe09bd5c	-0.13451141
93	0xbc921a31	-0.017834755
94	0x3d186686	0.03720715
95	0x3d3d755e	0.04625451
96	0xbdf58f17	-0.11990183
97	0xbc2d42aa	-0.010574976
98	0x3bf7d0ec	0.007562747
99	0x3bcd7e16	0.006271134
100	0xbd8d68fd	-0.069047906
101	0x3daf344c	0.08554897
102	0x3b4a1607	0.0030835883
103	0xbc8c272b	-0.01710852
104	0x3e1b728c	0.15180415
105	0xbd2a7dda	-0.041623928
106	0xbda1f014	-0.079071194
107	0xbcd62635	-0.026141265
108	0x3d9de721	0.077101
109	0xbb1e6bcb	-0.0024173136
110	0xbdcea865	-0.100907125
111	0xbd423f64	-0.047423735
112	0xbd17aaa0	-0.037027955
113	0x3d47c79e	0.048774354
114	0xbc6728b0	-0.014108822
115	0xbd8cc735	-0.06873933
116	0xbceb4177	-0.02871774
117	0xbda30577	-0.07960027
118	0xbd793766	-0.060843848
119	0xbd7dac37	-0.061931815

fully_connected2.weight f4 [10, 120]
0	0xbd9aecc4	-0.07564691
1	0xbd7ccb3a	-0.06171725
2	0x3cfe0c2c	0.031011663
3	0x3d678aab	0.05652873
4	0x3d668ba8	0.05628553
5	0x3c487697	0.012235305
6	0x3d139d58	0.036038727
7	0xbd05b1f2	-0.032640405
8	0xbd92a3e9	-0.0716017
9	0x3d6bf274	0.05760427
10	0x3d82636e	0.06366621
11	0x3cbab075	0.02278922
12	0x3c8b1505	0.016977796
13	0x3dde2155	0.10846201
14	0xbd8cebdd	-0.06880925
15	0x3c7fd9cd	0.015615893
16	0x3d8c383b	0.068466626
17	0x3d4e5cb8	0.050381392
18	0xbd7c10f2	-0.061539598
19	0xbcb34a16	-0.021885913
20	0xbbb0d7f0	-0.0053968355
21	0xbd809066	-0.06277542
22	0xbd19e0bc	-0.03756784
23	0xbe0d298c	-0.1378538
24	0xbda7af09	-0.08187682
25	0xbbcb064d	-0.0061958195
26	0x3bc7498c	0.0060817655
27	0xbd40dff6	-0.047088586
28	0xbbebf35e	-0.0072006425
29	0x3e000826	0.12503108
30	0x3d13f504	0.036122337
31	0x3d7f6a6a	0.062357344
32	0xbcdf4187	-0.027252926
33	0xbd3389df	-0.043832656
34	0x3da115eb	0.07865509
35	0x3da708e2	0.08155991
36	0x3d910024	0.07080105
37	0x3c48edea	0.012263754
38	0xbc7005ac	-0.01464979
39	0xbd037497	-0.03209361
40	0xbda1a8d3	-0.07893529
41	0xbdb057a8	-0.08610469
42	0x3d95a23b	0.07306334
43	0x3b51386c	0.00319245
44	0x3d88815c	0.06665298
45	0xbcfee731	-0.0311161
46	0x3cfcfb52	0.030881558
47	0xbaeb8377	-0.0017968257
48	0x3c301289	0.010746607
49	0x3ddf2a82	0.108967796
50	0xbcd99cc2	-0.026564006
51	0xbd790e40	-0.060804605
52	0xbcf803d9	-0.030275272
53	0xbda08aac	-0.078389496
54	0xbd44d673	-0.048056077
55	0x3ccce2ce	0.025010493
56	0xbd2f72d0	-0.042834103
57	0xbc309d43	-0.010779682
58	0x3d48879b	0.04895745
59	0xbcb9872b	-0.02264746
60	0x3d437d7c	0.047727093
61	0xbd283539	-0.041066382
62	0xbb84f15c	-0.0040570926
63	0xbc3c6475	-0.01149856
64	0xbd096497	-0.033543196
65	0xbd24127e	-0.040056698
66	0xbd78ab4c	-0.060710236
67	0x3d9705df	0.07374167
68	0x3c552ad1	0.0130106965
69	0xbce50eaf	-0.027961103
70	0xbd8c8706	-0.06861691
71	0xbd71eb61	-0.059062365
72	0xbda5d757	-0.080977134
73	0x3c59dfb0	0.01329796
74	0x3ca68df6	0.020331364
75	0x3d1f094c	0.038827226
76	0xbd81f072	-0.063446894
77	0x3e0525d9	0.13002719
78	0xbd02248c	-0.031773135
79	0xbd19d666	-0.037557982
80	0x3da65aea	0.08122809
81	0xbd878e86	-0.06618981
82	0xbd187d80	-0.03722906
83	0x3d804b61	0.062643774
84	0x3b1b051d	0.002365417
85	0x3db953d8	0.09049195
86	0xbdd0a7da	-0.10188265
87	0x3cd31ecf	0.025771527
88	0xbd5cd316	-0.053912245
89	0x3d462f82	0.04838515
90	0xbd4129ce	-0.04715901
91	0xbdae9a08	-0.08525473
92	0x3d9f8272	0.07788552
93	0x3d2c2174	0.04202409
94	0x3d388018	0.045044035
95	0xbdf30490	-0.118661046
96	0x3d90ec6d	0.07076345
97	0xbd4f007b	-0.050537568
98	0xbd70a634	-0.058752254
99	0x3d01c18c	0.03167872
100	0x3cdbd5de	0.026835378
101	0x3e07f80b	0.13278215
102	0xbcd95d47	-0.026533736
103	0xbb7cbbe6	-0.0038564145
104	0xbcd0ca55	-0.025487104
105	0xbd529ccd	-0.051419068
106	0xbce4d178	-0.027931914
107	0x3dbca2a3	0.09210708
108	0xbd436522	-0.04770387
109	0xbc96b764	-0.018397994
110	0x3d32f7cb	0.043693345
111	0x3dd2d2b3	0.10294094
112	0x3cbd2f8c	0.023093961
113	0xbd3782a1	-0.04480231
114	0xbcde5bfc	-0.027143471
115	0xbcad41b8	-0.021149501
116	0xbc6b346b	-0.014355759
117	0xbc990d11	-0.018682988
118	0x3cfaaac2	0.030599002
119	0x3c2f47f7	0.01069831
120	0xbceb9e03	-0.02876187
121	0xbd76b70e	-0.06023317
122	0x3d1485bd	0.036260355
123	0x3cb89cca	0.0225357
124	0xbd213f2d	-0.03936689
125	0x3ce2cb91	0.027684959
126	0x3cab8915	0.02093939
127	0xbdaad184	-0.08340743
128	0xbd26c420	-0.040714383
129	0xbd4e7c0c	-0.05041127
130	0xbd4dd401	-0.05025101
131	0xbdca38a7	-0.09874087
132	0x3d551718	0.052023977
133	0x3e146b7c	0.14494127
134	0x3dc4badb	0.09605952
135	0xbdffe653	-0.12495103
136	0xbdb081e9	-0.086185284
137	0x3dde3080	0.108490944
138	0x3d76414e	0.060120873
139	0x3d294ab8	0.041331023
140	0x3df0f4c7	0.117654376
141	0xbd4a1907	-0.049340274
142	0x3d898563	0.067148946
143	0xbdb9b575	-0.09067813
144	0x3db1a324	0.08673695
145	0x3aa51cbd	0.0012597066
146	0x3dd62ba0	0.104575396
147	0xbe08f34f	-0.13374065
148	0x3e0f3199	0.13983764
149	0xbda806b9	-0.08204407
150	0x3d1c6d36	0.03819009
151	0xbd81f944	-0.06346372
152	0xbd859178	-0.065218866
153	0xbccf5c75	-0.025312642
154	0xbcc92c95	-0.024557391
155	0xbd189e3f	-0.03726029
156	0xbc4e9374	-0.012608398
157	0x3dd75898	0.10514945
158	0x3e1f1f7b	0.15539353
159	0x3d4d5fa2	0.05014003
160	0xbdb49d8b	-0.088191114
161	0x3d8339b0	0.064074874
162	0xbc67ef41	-0.014156164
163	0x3cf3e82f	0.0297738
164	0xbdb6d3cb	-0.08927115
165	0x3d6007f9	0.054695103
166	0x3e1d53a0	0.15363932
167	0xbdae5f46	-0.08514266
168	0x3dfb3a25	0.122669496
169	0x3deb2200	0.11481094
170	0x3ba808e8	0.005128015
171	0xbd61c0bf	-0.055115458
172	0x3dec2360	0.11530185
173	0xbde1e8a6	-0.11030702
174	0x3da6c3c3	0.08142807
175	0x3d818572	0.06324281
176	0x3d1c88ac	0.038216278
177	0x3c420f77	0.011844507
178	0xbbc3d5b7	-0.0059764045
179	0xbca4e6d8	-0.020129606
180	0x3d4c5bf4	0.04989238
181	0x3d82e9cb	0.06392249
182	0x3dbc1287	0.09183221
183	0xbd91307c	-0.07089326
184	0xbd4f983d	-0.050682295
185	0x3d2f685a	0.042824127
186	0xbe03b327	-0.1286131
187	0x3dbbbb3f	0.09166574
188	0x3d4e2017	0.050323572
189	0x3dcc11b8	0.09964317
190	0x3d027ded	0.031858373
191	0x3de0aca8	0.109704316
192	0xba9e4834	-0.0012075962
193	0xbcf9d0cf	-0.030495076
194	0x3d4f6b0d	0.0506392
195	0xbd773d5c	-0.06036125
196	0xbda098d3	-0.07841649
197	0xbdb435a3	-0.08799293
198	0x3d90ce0d	0.07070551
199	0xbdb6868f	-0.08912384
200	0x3c93d1e0	0.018044412
201	0xbd995057	-0.07486027
202	0x3d4d6b0c	0.050150916
203	0x3d976e6b	0.073941074
204	0x3d6ddacc	0.05806999
205	0x3dc03ae6	0.09386234
206	0xbe5349ae	-0.20633575
207	0xbe25a32f	-0.16175531
208	0x3d3d4c92	0.0462156
209	0x3d1adea7	0.037809994
210	0xbca147dc	-0.019687586
211	0x3dcb0b54	0.0991427
212	0x3e1a0e57	0.15044533
213	0x3d80e40d	0.06293497
214	0xbce26b14	-0.02763895
215	0xbe00543e	-0.12532136
216	0x3ce766c6	0.028247248
217	0xbe0c10db	-0.13678305
218	0xbd9d7132	-0.07687606
219	0xbe1f0366	-0.1552864
220	0xbd88ab42	-0.0667329
221	0x3de833a1	0.113379724
222	0x3dc6760b	0.09690484
223	0xbc1f6bc5	-0.009730284
224	0x3e006ef3	0.12542324
225	0xbe2da07a	-0.16955748
226	0x3ca9d913	0.020733392
227	0x3c2bf76c	0.010496002
228	0xbd4250d5	-0.04744037
229	0x3ca5c076	0.020233374
230	0xbd85734b	-0.06516131
231	0xbb676a82	-0.0035311286
232	0x3c9a8708	0.018863216
233	0xbcb5d894	-0.022197999
234	0xbd813920	-0.06309724
235	0xbd982afe	-0.07430075
236	0x3e0465c8	0.12929451
237	0xbdc34ac2	-0.09535743
238	0xbc18de5c	-0.009330358
239	0x3d684bf5	0.056713063
240	0xbd3e5402	-0.046466835
241	0x3d62bf2f	0.055358108
242	0xbbf935b7	-0.0076052803
243	0x3cfeccec	0.031103574
244	0x3d7dce02	0.061964042
245	0x3e01d70b	0.12679689
246	0xbc98f8a6	-0.018673252
247	0x3d38df10	0.045134604
248	0xbceb5d3d	-0.028730983
249	0x3d2f0520	0.042729497
250	0x3d98cccf	0.07460939
251	0xbda144eb	-0.07874473
252	0xbd4e42a1	-0.05035651
253	0xbd08925f	-0.033342715
254	0xbc9c22dc	-0.019059591
255	0x3c09b888	0.008405812

fully_connected2.bias f4 [10]
0	0xbe3928d9	-0.18081988
1	0xbe59e37f	-0.21278189
2	0xbe50d462	-0.20393518
3	0x3eab43d8	0.33450198
4	0x3e40c188	0.18823826
5	0xbda64ec9	-0.08120496
6	0x3ebe6570	0.37186766
7	0xbe8ca864	-0.27472222
8	0x3d11ddf3	0.035612058
9	0xbdd22604	-0.10261157
