models/archive/simpleModel_testing2.pth (torch, 593263 bytes, 8 tensors)

conv1.weight f4 [6, 3, 5, 5]
00000000: 72b4 efbd bf08 25be e9d6 51bd dd6b 83bd
00000010: 8843 c7bd 4108 2bbe 7877 61bd 32a0 6a3e
00000020: 1a4f 61be a96a 80bd 7be2 02bf bdaa 553e
00000030: 79b0 173e bc90 c9be 0474 ab3d c669 c9bd
00000040: 3406 103f 6ac6 fa3d a34f 39bf 4467 803e
00000050: 885e cc3d c1a8 cebd 3550 57bd 5648 c6be
00000060: 6dac 3c3e 19f1 433d 6fe6 3a3e bcce e73d
00000070: e0ce fd3b 9215 963d 6523 003d 4dc6 9a3c
00000080: a0da 983e 7bbd 09be 157a 753d e406 49be
00000090: c8d3 f23e d237 843e 9adc 9cbe a77f 063e
000000a0: 4b32 693d d9ec 4f3f aafe 423e 9a4b ebbe
000000b0: 5ab1 673e 895a 903d 6959 323e 3bec 7b3d
000000c0: a307 19be 0d21 993e 3d55 363b 99ec d73d
000000d0: 8fc4 d2bc 0f6b 0abe e0f2 f73b 8b02 2ebd
000000e0: f7dc 3abe df81 a83d 6a90 f23c 467d bb3d
000000f0: 16ee 8abe 413f e13b eece 393e fc5f 45be
00000100: eb6d 5c3c 892c 9cbe 06f8 ab3e d70f e53d
00000110: b56e e3be f79f c63e 9191 1cbe 8dd5 71be
00000120: 68c1 96bd 3798 a9be c803 633e 4bd0 42be
00000130: 1a19 60be 6a80 42be bae8 aebd 04ce 04be
00000140: a133 e5bd f282 58be 6a8a 3abe b3bd 84bd
00000150: 09e8 bfbd 055d 4ebe 84bb f2bd e4be 69bd
00000160: 4843 2f3d 3b8e f73d 0141 bf3c 170f 343e
00000170: b022 753d 672a fa3d b518 013e c11a 053e
00000180: 7098 733e 9bf1 823e 9832 9e3e b34a 813e
00000190: d31b 113d fdf4 2abd ab2c 6dbd 592d 943d
000001a0: 49a3 9d3d 74f8 e0bd 9e66 cc3b a7a9 05be
000001b0: 883f 8bbd 5b45 053e db92 80bd b1b8 23be
000001c0: 9e47 14bc 7594 ef3d ea38 433c e41f 76bd
000001d0: 5bf6 c3bd 539a cb3d 0cd2 0fbc f142 e4bc
000001e0: d0a7 85be 2558 10be 5779 883c 8c3b a5bc
000001f0: 9086 92bd 9524 05bd fb54 383d 028a c33d
00000200: 3b28 243d 3864 433e 48e9 573d 0437 9e3c
00000210: 9d1b 343e 46d2 ae3e b6c5 893e a7a9 d8bd
00000220: 97b1 a53d ffb2 753e 2215 b43e 5f2f 4b3e
00000230: ebc1 93bd ddfd adbc 498c 433d 25e8 4d3e
00000240: 870e 2c3e 91bd a5bd 0869 3dbd 1516 06be
00000250: 55e3 35be 35e1 2ebe 5559 883e 4ad0 103f
00000260: 8126 103f 99d4 0c3f 3b1d 3b3e b23a d23d
00000270: 7da9 1a3e ddde d93d 94dd 503e 72b2 eb3d
00000280: bf06 17be 79a4 14bf ef0b 2cbf b37c f2be
00000290: 028b 00be a6be 80bd 4b99 10be a598 2dbe
000002a0: 3d8d 2bbd 8bc0 203c 7d88 62bd da4f 8a3b
000002b0: 0b12 043e d394 32bc f3f4 21be 2a2c 65be
000002c0: de79 87bc 96cf 063e 78ab 8bbc 395b f1bc
000002d0: 8fb2 69be bdf4 85be 7fed ffbd fc16 35be
000002e0: ef52 903d dc56 b1bd da8f 09bf 83c8 1fbf
000002f0: 7b30 09bf 3bfc a1be e3ed 813c 3658 0d3e
00000300: 3816 7a3e 978a 473e 9a4f 943d 18c1 df3d
00000310: 85ee be3e 379a be3e a443 c13e 7b5d 3f3e
00000320: 67fb 49bd 0cc3 73bd dedb 683e 3020 2b3d
00000330: bf62 2fbc 65cc c83d 6f78 68bd e2d0 713d
00000340: e8fe 463d 4956 983c 4bab d4bd afdf 1cbe
00000350: f4f2 8abe ec30 5dbe ff09 c8bc 9579 293e
00000360: ba6a 823e 02e0 363e 8054 f63d 2fcc 023d
00000370: 3059 2bbd 5571 2a3e 46e6 903e 5c5a da3d
00000380: 33fd 093e 5563 bdbd bef2 a13c 0e67 93bd
00000390: e44d 0dbe 6b51 c6bd 8132 63bd 2aa1 5ebe
000003a0: dca1 ae3c ebf5 4bbe d98a abbd 5ac7 2abd
000003b0: c65d ae3d 3eff 313d 77e5 b63d f698 a8bd
000003c0: ee5a b3bc f367 8cbe 0088 e3bd 1320 44be
000003d0: e659 81be fbdb e6bd cff1 1dbe b75b 69be
000003e0: f316 84be 58b0 fabd 52b0 62bb 97bf 54bb
000003f0: a6be 8ebd 70eb 2dbe 3668 d83c ea51 553b
-0.11704339 -0.16116618 -0.051230345 -0.06417058 -0.097296774 -0.16702367 -0.055045575 0.22912672
-0.22002831 -0.06270344 -0.5112683 0.20865913 0.14813413 -0.39368236 0.083717376 -0.09834628
0.56259465 0.12244876 -0.7238714 0.25078785 0.09978968 -0.10090781 -0.052566726 -0.38727063
0.1842515 0.04783735 0.18251966 0.11318728 0.0077456087 0.07328333 0.031283755 0.018893385
0.29854298 -0.13451187 0.05993088 -0.19631535 0.474272 0.25823838 -0.30637056 0.13134633
0.05693273 0.81220776 0.19042459 -0.45956117 0.22626248 0.07048518 0.1741692 0.061504584
-0.1494432 0.29908028 0.0027821802 0.10543174 -0.025728492 -0.13517402 0.0075667948 -0.042482894
-0.18248354 0.08227896 0.029609878 0.091547534 -0.2713477 0.0068739955 0.18145344 -0.19274896
0.013453941 -0.30502728 0.33587664 0.11184662 -0.444204 0.38793918 -0.15289904 -0.2361662
-0.07361108 -0.33123943 0.22169411 -0.1902477 -0.21884575 -0.18994299 -0.08540483 -0.12969214
-0.11191488 -0.21143702 -0.18216863 -0.06481495 -0.09370429 -0.20152672 -0.11852172 -0.057066813
0.042788774 0.12087675 0.023346426 0.17583881 0.059847534 0.12215119 0.12607081 0.12998487
0.23788619 0.25574955 0.30897975 0.25252303 0.035426926 -0.041737545 -0.057903927 0.07235212
0.0769716 -0.10984889 0.006237819 -0.13052998 -0.06799227 0.13014738 -0.062780105 -0.15988423
-0.009050278 0.11698238 0.011915425 -0.060089007 -0.09568473 0.099415444 -0.008778106 -0.027863951
-0.26104593 -0.14096124 0.016659422 -0.020169996 -0.07154572 -0.03250559 0.04500292 0.09547807
0.04007743 0.19081199 0.05271271 0.019313343 0.17588659 0.341448 0.26908654 -0.105792336
0.08090513 0.23994063 0.35172373 0.1984229 -0.07214721 -0.021239216 0.04774121 0.20108087
0.16802417 -0.080927975 -0.046242744 -0.13094361 -0.17762502 -0.17078097 0.26630655 0.56567824
0.5630875 0.550119 0.1827287 0.102651015 0.15103717 0.10638211 0.20397025 0.11508645
-0.14748667 -0.58063465 -0.6720571 -0.47360763 -0.12553027 -0.06286363 -0.14120977 -0.1695276
-0.041882742 0.009811531 -0.055305947 0.004220945 0.12897508 -0.01089974 -0.15816097 -0.22380129
-0.016537603 0.13165125 -0.017049536 -0.029462444 -0.22822021 -0.26163283 -0.12496471 -0.17684549
0.07047068 -0.08659145 -0.53735125 -0.6241533 -0.535896 -0.3163775 0.015860504 0.13803181
0.24422538 0.19486462 0.07241745 0.109255016 0.3729135 0.37227032 0.37746918 0.18688004
-0.04931202 -0.059512183 0.22740123 0.041778743 -0.010704695 0.0980461 -0.05675548 0.059037097
0.04858294 0.018595831 -0.10384234 -0.15319704 -0.27138484 -0.21600693 -0.024418829 0.16550286
0.2547205 0.1785889 0.12027836 0.031933006 -0.041833103 0.16644795 0.28300685 0.10661766
0.13475494 -0.09247462 0.019769069 -0.071973905 -0.13799244 -0.09683498 -0.055468086 -0.21741167
0.021317415 -0.19918029 -0.083760925 -0.041694023 0.085139796 0.04345631 0.08930486 -0.082323
-0.021893945 -0.27423057 -0.11109924 -0.1915286 -0.252639 -0.11272427 -0.15424274 -0.22788893
-0.2579876 -0.12240666 -0.0034589958 -0.003246283 -0.06969957 -0.16984344 0.02641688 0.0032550045

conv1.bias f4 [6]
00000000: a5a1 71be acc6 7abe b6cd 00bf d10f 47bc
00000010: a02f a2be a9e8 dfbe
-0.23596819 -0.2448985 -0.5031389 -0.012149767 -0.3167696 -0.43732193

conv2.weight f4 [12, 6, 5, 5]
00000000: 252a 62be c25d 92be 8fab 62be f40f 95bd
00000010: cd93 f53c 64db 1cbd 8807 25be c7c2 70be
00000020: f5a9 96bd 88bb 163d f72e 583d 6c1f 0abe
00000030: e739 32be ab04 e3bd 184b 0c3d 24c5 713e
00000040: 42b8 3e3d d67e 34bd 8ac8 76bd cfc6 313e
00000050: 68cb 533e 99c3 d5bc f3c7 afbb 5ce9 00bd
00000060: dacf 123c d83b 653e 4aca 1a3e 93e9 4f3e
00000070: 5400 593e fe71 163e b2dc 6fbc 1804 f8bc
00000080: 9779 cd3d 281b ad3d 7d59 93bd e68f 2cbe
00000090: 7cbf 5dbd 4ac9 2ebd eace ffbd 54de 40bd
000000a0: 1016 30be bda6 c0bd efe5 ccbd b274 8dbd
000000b0: 5e3d 1dbe cc8e 063d f766 a63c 7cd4 f3bd
000000c0: 6a95 c5bd 6341 82be 0bd9 b2bc 53a8 223d
000000d0: e60f 9f3b a275 8b3c c52e f33d af40 42bd
000000e0: 77c1 e2bd a257 9abd 4a47 93bd 98c1 48bd
000000f0: 959d fb3d 4420 b23d b2ce d93d 6d9f 8bbd
00000100: 71d7 e7bd a235 1f3e 0d44 fe3d aad3 163e
00000110: ef1e b33b 8ff5 39be e7eb e43d 53d9 423e
00000120: 3d1a cd3d 47be 80bc 5f10 01be ed2e 2f3e
00000130: 2275 c23d 81d9 fd3d 4348 db3d 2e96 8d3d
00000140: fa67 e7bc 246d 443d 2447 103e 4063 ec3c
00000150: ca8c 103b 040e 32be 9636 b7bd 508d a43c
00000160: c2e4 27bb cbc8 02be 29b4 2dbe e5f0 f3bc
00000170: d170 aa3c 516c 25bd 44d7 2dbd 6e3b d63b
00000180: ef6c d03d c562 1a3d 78bd bb3d 70b8 04be
00000190: bcec b2be ae25 b2be 461a 77be 9804 30be
000001a0: 0437 82bd 7166 81bd 6176 84be a0af b0be
000001b0: 887a 15be 5521 2b3d f60c fc3d 4ec4 df3c
000001c0: ae5d afbd 2ade 683e ada6 5d3e 0969 533e
000001d0: e977 033e 8252 573b bc19 183e 0da8 5a3e
000001e0: fdb1 393e 9e2c 72bd 0d2c d5bc 76c7 233e
000001f0: c9a8 6b3e a9d0 81be ce35 76be 3c34 4fbe
00000200: b960 3bbd 6c95 963d 742a 403d 47e7 45be
00000210: c7fb 35bd 314a d8bd 90e8 8d3d e2ea 8d3e
00000220: 0093 613c f46e 59bd f283 943d 31fd fd3d
00000230: bbf1 3a3e cf93 693d af91 64bb 92ab 9e3d
00000240: 4f57 febc 4899 afbd 2d5b c23c 8e36 0abe
00000250: 9d20 13bc 049b f1bd 7354 c9bd 8eaf cbbd
00000260: 19f9 963d 1780 0abd 5e04 b6ba 6b09 39bd
00000270: b6f2 1fbd cde2 47bd 826e c8bc 5925 1bbd
00000280: 36cf b5bc 7734 6bbd 3456 3bbd 95db f03c
00000290: 3d38 2a3d af08 0bbe f61e 24bc 615b 25bc
000002a0: ed63 bb3d 3bab 7c3d 8c53 4abd 2f56 213d
000002b0: a598 383e e2ea 493d 848a fe3d 9120 5cbd
000002c0: 5e54 9b3d 62a9 aa3d da43 a73d 46d1 f4bc
000002d0: 8879 59bd f4f5 65bd 6615 833d e53d aabd
000002e0: 0c25 243b 4794 c1bd 6a59 8f3d a219 be3c
000002f0: 1e13 1f3d b504 653d 5262 a2bc c935 9e3c
00000300: 0baf 3bba a92f 3b3c 4210 0c3e e44f 423d
00000310: 7aca b43b bb07 9d3d ddd6 6a3d 2145 803c
00000320: 5598 d83d 15ae a93d aaee 053d 7c32 d23d
00000330: fe6c 263e 195f 713d 40f2 253d 96d5 ac3d
00000340: da8b 053d 129f 3f3d 27ca 143e b523 ce3d
00000350: 605e 403d 256e 893d 8026 843d 2e16 143b
00000360: bf5a 61bd 07a6 8dbc f7c3 2bbd a989 08bd
00000370: d43a 163d 5ef5 84bb 8b1b 30bd de16 f0bd
00000380: a5c3 cb3b 4829 a43d 86ef 7abc 19d3 133e
00000390: 51d2 a3bc b08c dfbc 2535 b8bd 3ada 13be
000003a0: c189 67bc a074 913d c8af 98bd bcfb 293e
000003b0: 6c6d f53d 305a 6c3d affc 953d 30ac bebc
000003c0: e391 fa3d d930 21bd 8785 c3bc fbef a6bd
000003d0: ad56 f0bd 67c4 513e 8e88 5dbd 1d48 a4bb
000003e0: 4c17 0f3d 5f4d b73d 0bff edbd 1e70 56bc
000003f0: 3baf 313d 1113 e4bc 3aee 78bc cb13 64be
-0.2208639 -0.28587157 -0.22135757 -0.072784334 0.029977703 -0.038295165 -0.16116154 -0.23511802
-0.073566355 0.036799937 0.052779164 -0.13488549 -0.174049 -0.11084875 0.034251302 0.2361036
0.04656244 -0.044066273 -0.060249843 0.17360996 0.20683062 -0.026094245 -0.005364412 -0.03147255
0.0089606885 0.2238611 0.1511623 0.20303945 0.21191531 0.14691922 -0.01464002 -0.03027539
0.10032957 0.08452445 -0.07194803 -0.16851768 -0.05413769 -0.042672433 -0.124906376 -0.04708703
-0.17195916 -0.09406803 -0.10004794 -0.069070235 -0.15355441 0.032851025 0.02031277 -0.119057626
-0.09647639 -0.2544051 -0.02183201 0.039711308 0.00485419 0.017023865 0.11874155 -0.04742497
-0.11072057 -0.07536246 -0.07191332 -0.04901275 0.12285916 0.086975604 0.10635127 -0.068175174
-0.11320389 0.15547803 0.124153234 0.14729181 0.005466334 -0.1816008 0.11177807 0.19028215
0.1001477 -0.015715731 -0.12603901 0.17107745 0.094949976 0.12395001 0.10707142 0.0691341
-0.028247822 0.047955647 0.14089638 0.02885592 0.0022056573 -0.17388159 -0.08945958 0.020086914
-0.0025618528 -0.12771909 -0.16963257 -0.029777953 0.020805748 -0.0403865 -0.04244162 0.0065378463
0.101770274 0.03769185 0.09166998 -0.12960982 -0.3494624 -0.34794372 -0.24131116 -0.17189252
-0.0635815 -0.06318367 -0.25871566 -0.3450899 -0.14597523 0.041779835 0.123071596 0.027315285
-0.0856279 0.22740999 0.21645613 0.20645536 0.12838711 0.0032855575 0.14853567 0.21353169
0.18134303 -0.05912458 -0.026021982 0.15994057 0.23013605 -0.25354508 -0.24043962 -0.2023477
-0.04574654 0.07352719 0.046915486 -0.19326507 -0.044429567 -0.10561026 0.069291234 0.27718264
0.013767958 -0.05308433 0.07251729 0.12401808 0.18256275 0.057025727 -0.0034876873 0.07747568
-0.031047491 -0.08574158 0.023725117 -0.13497373 -0.008979944 -0.11797145 -0.098305605 -0.09945594
0.0737173 -0.033813562 -0.00138868 -0.045174997 -0.039049827 -0.04880028 -0.024466757 -0.037877414
-0.022193532 -0.05742308 -0.045736507 0.02940158 0.04155754 -0.13577531 -0.010017147 -0.010092587
0.09149919 0.061686736 -0.049396083 0.03938883 0.1802698 0.049296267 0.124287635 -0.053741995
0.07584451 0.083330885 0.081672385 -0.029884946 -0.053094417 -0.056142762 0.06400566 -0.08312587
0.0025046496 -0.0945211 0.06999476 0.023205582 0.03883659 0.055912692 -0.019822273 0.019312756
-0.00071595673 0.011424937 0.13678077 0.04743947 0.005517301 0.0766749 0.057333816 0.015657963
0.1057593 0.08285157 0.03269831 0.102635354 0.16252515 0.058928583 0.04051423 0.08439176
0.032604076 0.04678256 0.1453024 0.10065404 0.046965003 0.067104615 0.06452656 0.0022596228
-0.055018183 -0.017291082 -0.041934934 -0.033334408 0.036677197 -0.0040575704 -0.042995017 -0.117231116
0.006218391 0.08015686 -0.015315896 0.14435996 -0.019997748 -0.027288765 -0.089945115 -0.14438716
-0.014131964 0.071023226 -0.074554026 0.16599935 0.11983761 0.057703197 0.07323586 -0.023275465
0.12234857 -0.039353225 -0.023867382 -0.081512414 -0.11735282 0.20485078 -0.054085307 -0.0050134794
0.034934327 0.08950304 -0.11620911 -0.013088254 0.043380003 -0.027841123 -0.015193516 -0.22273175

conv2.bias f4 [12]
00000000: c03e 0fbf ffe3 2b3f 0c3a a13e 1f3a b7be
00000010: 9051 4d3f 7c90 0a3f 424e 693e 8ef9 8e3f
00000020: 0ec6 7dbe fb9a 293e baf1 5d3d a166 fc3e
-0.55955124 0.6714477 0.314896 -0.3578653 0.8020258 0.54126716 0.22783759 1.1169908
-0.24782583 0.16563027 0.054185607 0.4929705

fully_connected1.weight f4 [120, 1200]
00000000: 37b2 1b3d c596 d03c 3974 eebb ed7f e93b
00000010: 8cad 1fbd 6567 e53a 50d0 85bc 06ad ffbb
00000020: 4aec 803c 2d04 843c 3f8f 623b 710f d33c
00000030: 6ba7 613c 4717 c2bb a742 1ebd 9715 3fbb
00000040: 3ca8 24bd b6aa 32bc 36c5 b9bc 6619 043d
00000050: b1dd 2dbc 01c3 183b 160b 483c 9aaa 223c
00000060: a2fe 23bd 6e7d 3ebd 8eac 18bc b81d bcbc
00000070: 38c5 92bb 0826 3e3d 31c6 a63a 445c 013d
00000080: fb81 963c e054 c8ba 96b5 e6bc a697 d83c
00000090: 9eee 2abc 3406 a3bb b7f6 9b3c 7f59 a83c
000000a0: 981c debc dffd 65bc 4b46 0dbc 6e94 64bc
000000b0: 35e3 243c b87e 1d3b 8a1f 3a3c d19a cc3c
000000c0: 130c 123d 9c78 64bb de34 85bc 2b06 babb
000000d0: 6448 2b3b 2b6b 1fbc 823e 3c3d 4edb 263d
000000e0: e568 203c 402f 103d 9b41 3b3c ac0f 42bc
000000f0: 5605 c13c 9c46 063d 7abc 3bbc 702d fe3c
00000100: e414 233d 1318 ba3c b95d 653c 3c6d 183d
00000110: 35d0 323c eb88 aabc f5af f73a ff07 ae3c
00000120: be27 993c a594 6a3c 0fb3 e0bb ef92 f6bc
00000130: a554 a53c eff1 4c3d aa4f 1e3d 4c93 d63c
00000140: 8d69 e6bc 5ab7 843b 6950 5cbc 13f3 b6bb
00000150: 2167 1e3c bb5b 8fbc 5ca9 453c c494 0b3d
00000160: 359c 953c b713 91bb 8509 513c cc2d a2b9
00000170: 4561 07bd 59b0 a3bc 5fff c63b b10e 14bd
00000180: 3d32 d6bc 763c 123c 61ea 74bc 0d4a 4bbb
00000190: 3d15 0c3d e682 24ba 3778 9e3c 3c98 73bb
000001a0: e48e f43c 95f2 5eb9 ff5b 873c 17f7 d23c
000001b0: f49b d73c 7fad 8c3c f2a8 bd3a ec8f d43c
000001c0: 0492 f43b 2e79 c8bb d0b8 65bc 63d2 2abd
000001d0: 7210 b2bc 389f b1bb 0792 7abc c864 c53b
000001e0: 0ca1 e4bb c244 a4bc 704a 98bc 0386 3e3c
000001f0: e784 53bc 68f2 f0bc 8cef 633a 1630 153c
00000200: 5579 203d 96af 063d b851 633c 5f85 953c
00000210: 0560 4cbc f56e 5bbb 2102 6a3c 175b 0c3c
00000220: 142b 58bc 5e01 adbb 04ae 223d c840 0d3d
00000230: af42 76bc b2de 1cbc 92e8 72bb 2fad 77bc
00000240: 4ace 9a3a 2d97 eabc 4e5c fcba c7a9 613c
00000250: 262f 65bc dd68 ef3c 2d4c 243d 530e 08bc
00000260: 933a 2bbc da5f 2b3c 7bbf cfbc b259 e1bc
00000270: cd87 aabc a0f9 213c 1b6e 8e3a 43a6 283d
00000280: ecc4 213d 8aab 9c3c 5fad 0c3c b9ff 56bc
00000290: 38db a9bc fd7a 0ebc 62ae eebc 15d3 c9bc
000002a0: f5ec e9bc e1fb 18bc 08e6 30bc c4fd 403c
000002b0: e277 13bd 542c c6bb 3066 07bd 6733 02bd
000002c0: 9a87 253a e543 59bb e231 893c 12b7 a33c
000002d0: be0c c13c e9f3 d5bc 2376 fdbb 3f17 47bc
000002e0: 8150 afbc 4cd4 7fbc 88ef 35bc 2318 893c
000002f0: 6ac1 e7bc 6abc 3d3c 7bef 083c b532 b73c
00000300: 7d45 05bd a5ae 29bc 9c92 87bc f485 cb3c
00000310: a2e7 f43b 4e01 823c 69be 90bc 88fd 2cbc
00000320: 75b1 983c dbdc f43c dac5 babb 3598 cbbc
00000330: 62b8 99bc 5f9e 273c aef3 a13c 5d8b 393c
00000340: e62e f13c 7d8e df3c 02e7 c73b 08fa ac3c
00000350: 8ba4 f23c 5d2d b1bc 0e05 66bc 6a0c d03c
00000360: 605a d1bb 7533 823c 6a8d 80bc b480 a03c
00000370: c9ed 73bc f48b 0bbd d4dd debb c7d9 073d
00000380: 2ef4 c93b 278f 983b f0cb c13c a034 1cbc
00000390: 9d0e 2d3c 3304 12bd e87e f2bb 97c8 1b3c
000003a0: 5293 1b3d cf83 1c3d ac89 3a3c 304b 3abc
000003b0: 69f5 073d 12be 073d 9444 91bc 9305 9b3b
000003c0: 1407 06bd 2ada 263c 5ddb d43b 7131 ca3c
000003d0: 9ff5 173c a343 013c 040d 2d3c 97c1 88bc
000003e0: fdbb d6bb 2fac 90bc 19dc 06bd 7d87 40bc
000003f0: bd52 38bd 599c eabc 8a5b 693c b0a1 04bd
0.038011756 0.025462518 -0.0072770384 0.0071258456 -0.038983867 0.0017502127 -0.016334683 -0.0078026084
0.015737671 0.016115272 0.0034570245 0.025764199 0.013772826 -0.005923185 -0.038637783 -0.0029157156
-0.040199503 -0.0109049585 -0.022677045 0.032250784 -0.010611937 0.002330959 0.012209674 0.00992837
-0.04003776 -0.046506338 -0.009318484 -0.02296339 -0.0044790767 0.04642299 0.001272386 0.031582132
0.018372526 -0.0015284084 -0.028162759 0.0264395 -0.010432867 -0.0049751047 0.019038541 0.020550488
-0.027113244 -0.014037578 -0.008622716 -0.013951404 0.010063936 0.002403183 0.011360059 0.024976166
0.035656046 -0.0034861928 -0.01626056 -0.005677005 0.0026135677 -0.009730141 0.04595805 0.04073649
0.009790634 0.03520131 0.011429216 -0.011844557 0.023562115 0.032782182 -0.0114585105 0.031027526
0.039814845 0.022716558 0.013999396 0.03721355 0.010913898 -0.02081724 0.0018897044 0.021244047
0.018695708 0.014317666 -0.006857283 -0.03009936 0.020181963 0.050035413 0.038650192 0.026193283
-0.028126502 0.0040501775 -0.013446906 -0.005583176 0.009668143 -0.017499795 0.012064304 0.03407742
0.018262962 -0.004427399 0.012758617 -0.0003093317 -0.033051748 -0.01998155 0.006072923 -0.036146823
-0.026147002 0.008925548 -0.014948458 -0.003101948 0.034199942 -0.0006275609 0.019344432 -0.0037169596
0.029853292 -0.00021261939 0.01652336 0.025752587 0.026319481 0.017172573 0.0014469905 0.025947534
0.0074636955 -0.0061179614 -0.0140211135 -0.041704547 -0.021736357 -0.0054205917 -0.015293605 0.006023977
-0.006977206 -0.020052318 -0.018590182 0.011628631 -0.012910104 -0.029412463 0.0008695058 0.009105703
0.03917821 0.032882296 0.013874464 0.018252073 -0.012474065 -0.0033482884 0.014282734 0.008566639
-0.013193864 -0.005279704 0.039716735 0.03448561 -0.015030547 -0.009574579 -0.0037064892 -0.015116974
0.0011810747 -0.02863654 -0.0019253583 0.013773388 -0.013988292 0.029224807 0.04011171 -0.008304196
-0.010450977 0.0104598645 -0.02535986 -0.02750859 -0.020816708 0.009886175 0.0010866554 0.041174185
0.03949444 0.019124765 0.008586257 -0.0131224925 -0.020734414 -0.008696315 -0.029135887 -0.024636785
-0.028555373 -0.009337396 -0.010797031 0.011779252 -0.036003 -0.006047765 -0.033056438 -0.031787302
0.00063144567 -0.003315204 0.016747419 0.019984756 0.023565646 -0.026117282 -0.0077350303 -0.012151538
-0.021400692 -0.01561458 -0.011104472 0.016735142 -0.02829047 0.011580566 0.008357878 0.022363046
-0.032536972 -0.01035658 -0.016549401 0.024844147 0.007473902 0.015869763 -0.01766892 -0.010558493
0.018639306 0.029890468 -0.0056998553 -0.024852851 -0.018764678 0.01023063 0.019769516 0.011324731
0.029441308 0.027289623 0.0061005363 0.021115318 0.029619476 -0.021628076 -0.014039291 0.025396544
-0.0063889474 0.015893677 -0.015692431 0.01959262 -0.014888235 -0.034069017 -0.0068013463 0.033166673
0.0061631417 0.004655737 0.023656815 -0.009534031 0.010562566 -0.035648536 -0.0074003823 0.009508274
0.037982292 0.03821164 0.011385363 -0.011370465 0.033193026 0.03314025 -0.017732896 0.004730889
-0.032721594 0.01018385 0.0064958767 0.024681779 0.009274869 0.007889661 0.010562185 -0.016693873
-0.0065531717 -0.017660229 -0.032924745 -0.011751053 -0.04500078 -0.028639005 0.014243016 -0.03238076

fully_connected1.bias f4 [120]
00000000: 962f 65bd 529f 42bd c89f 723d d293 123d
00000010: a3cf 823c 8f04 9cbd 16a4 9abc 666c a73d
00000020: b84c 7bbd 4660 04bd 9f62 7abd a671 1c3c
00000030: df7c 163d f7da c9bd ef52 e73c 8786 5f3c
00000040: f850 4a3d e746 07bc ac75 1c3d 52ac c73d
00000050: 06f5 153d 249b a23d 738c 2bbc 365e c6bc
00000060: 0f1b abbc 0f5a a33d 8af7 ea3c 2e86 9dbd
00000070: 725d 36bd 1a12 a4bd a140 9239 2915 023d
00000080: 5333 bebc 34b5 20bb 3b23 b2bc 2a49 95bc
00000090: 8450 10bd dd59 6f3d 4a61 383d f1c1 15bd
000000a0: 8b2c 9cbc 6502 223d 685a 6b3d f6f0 7ebc
000000b0: 16fe 8e3d 619e 45bd 50c7 b73d f22e a43c
000000c0: 4ab7 09bd a6e0 37bd 57c9 ad3b 2f64 3e3d
000000d0: 5cce a03d 141d bdbd 5482 14bc 4932 663d
000000e0: a1dd c73c c907 e6bc 3f84 443d e6e6 c9bc
000000f0: 6bc3 6cbd 7cd5 2c3d 0939 77bd 50fa a2bc
00000100: a7be fd3c 7d6c ca3d 125d 903d 579d 843d
00000110: 87b2 343d d82f 7fbc 3ba7 9fbd dc33 2ebd
00000120: f5d1 ccbc 4dca 933d 1df1 223c 7717 d9bd
00000130: d34a 7fbd fe3f 79bd c7ac 75bd b37c 6d3d
00000140: 59c5 cf3c fe71 89bc fb7a 633d 46e6 ddbc
00000150: 8a6e 2c3d 09b6 80bd b36e 143d aba9 46bb
00000160: 1fcc ee3d c38d 3bbd 1e84 1fbd db42 933d
00000170: fb96 b83d 995c 493d 012b 6bbb f435 2abd
00000180: 5d30 cfbd 36c6 043c 3ffe fc3d b552 ad3d
00000190: a9f6 ba3c 8136 3fbb 8cea 1c3d cb37 df3c
000001a0: 672f 1c3c bc7d cc3c 7948 a33b 4002 a13d
000001b0: a84c e83c 5be8 51bb 8c58 253c 6b20 0dbd
000001c0: 2d0b b4bd 58d3 79ba a827 58bd ed54 48bd
000001d0: 55a1 bbb8 10cb cd3c ed96 313c ed01 823c
-0.055953585 -0.04751522 0.05923441 0.035785504 0.01596815 -0.07618057 -0.01887707 0.08174972
-0.06135246 -0.032318376 -0.06112921 0.00954858 0.03674018 -0.09856217 0.028237788 0.013642914
0.049393624 -0.0082566505 0.03819816 0.09749664 0.036610626 0.07939747 -0.010470497 -0.024214845
-0.020886926 0.07976162 0.028682489 -0.07691608 -0.04452271 -0.08011265 0.00027895442 0.03175846
-0.023217833 -0.0024522068 -0.021745315 -0.018223364 -0.035233036 0.05843531 0.045014657 -0.03656191
-0.019064208 0.039553065 0.057459265 -0.015560379 0.06982057 -0.048246745 0.08973563 0.020041917
-0.033622064 -0.044891976 0.0053035426 0.04648226 0.0785186 -0.09234062 -0.009064276 0.0562003
0.024397673 -0.028079884 0.047977682 -0.024646234 -0.057803553 0.042195782 -0.060357127 -0.019894749
0.0309747 0.09883974 0.07049002 0.06475323 0.04411557 -0.015575372 -0.077955686 -0.042529926
-0.025002459 0.0721632 0.009945181 -0.10600179 -0.062327217 -0.060852043 -0.059979226 0.05798025
0.025362657 -0.016777989 0.055537205 -0.027087342 0.042097606 -0.062847205 0.036238384 -0.0030313532
0.11660027 -0.04578949 -0.038944356 0.07190486 0.09013172 0.049160574 -0.0035883787 -0.04155536
-0.101166464 0.008103898 0.12353181 0.08463041 0.022822695 -0.0029176774 0.03830962 0.027248284
0.009532786 0.024962299 0.0049830046 0.07861757 0.028356865 -0.0032029364 0.010091912 -0.034454744
-0.08791194 -0.0009530089 -0.052772194 -0.048909117 -8.946905e-05 0.025121242 0.010839206 0.015870059

fully_connected2.weight f4 [10, 120]
00000000: d53e 4dbb 4ee6 123c fbf6 183d 148e 293d
00000010: 1e95 afbc 0d84 173d 8a9a 90bd 7099 e4bd
00000020: 8942 183d f3c8 663d 3b7c 5bbd 5607 083d
00000030: fd83 493d 2790 6e3c 8172 dcbd d470 283d
00000040: bb92 283d 744c 043d 4b99 d83b 05ef d6bd
00000050: 0cc2 fdbc b31e 34bd 00b3 823c 1440 71bc
00000060: 9835 813d c87c 52bd e991 55bd 55e3 333d
00000070: a213 fc3b 0c71 edbc d0ae 31bd cc4c 9abc
00000080: c41f 23bd 7296 a43d 9656 3dbd 86f1 843d
00000090: 64fb 7a3d be17 dfbd f788 5ebd d67f 903d
000000a0: d3cc 47bd d230 e33c 61e6 c5bd 7d27 0fbd
000000b0: 9fee 0ebd 09f1 823d 5f46 4bbd 49c1 b0bd
000000c0: 9a25 b4ba 4966 b1bd accf dabd 5176 71bc
000000d0: be15 54bd ae44 5c3d d9c3 1dbd eea6 4b3d
000000e0: f278 76bd d13f 943d 9db4 5b3d fccf 6bbd
000000f0: 9b0a 2fbc c137 c9bd d662 a63d 9719 6c3d
00000100: 78e5 e6bd 311b d0bd bd1d a5bd 0f5e b5bd
00000110: 048a 28bd 58e5 65bd 1252 8d3d 0935 27bc
00000120: b35c 833c 8d82 8a3d ab12 ba3a 64d0 743d
00000130: fa1e 403c c6a5 443d 8a70 703c 1fb9 f53c
00000140: 022e c53c 03aa 803d b302 9ebd 5f6e 9ebd
00000150: fc16 c8bc db5f bb3d 7f76 9bbd f82a 3fbd
00000160: 6319 05be 5661 47bd 761d cf3c 7a23 79bd
00000170: 348a e6bd 1575 42bd 83ef d8bc 5dc8 563c
00000180: 0dca cb3d 936f c3bc 5bc7 a4bd 15a9 d3bd
00000190: 60ec b6bd c2fa 3b3c d9e0 83bd f5bf b63c
000001a0: ebf9 ecbc 3494 65bd 1051 8f3d 6ffb d0bd
000001b0: b559 18bd cb5d 4d3d 07ef 8e3d d6b9 673d
000001c0: ede6 ca3d d17d 0fbd 74b0 9a3d cd89 9d3d
000001d0: 1910 053e 97eb 413d 93ce d6bb c5fa 393d
000001e0: d334 9abd 341d 34bd e000 f13d 22af 2fbe
000001f0: 93b4 62bd 6702 9c3c 770d 303d 53cf 113c
00000200: ae7a 153e 49ff d1bd 5c38 363e 49a8 e53b
00000210: 05fa c03d 7902 2bbd 58cd 05be 842f a53d
00000220: e15e 763d a686 2dbc 6a1a afbd 8840 243d
00000230: 406b 253d a443 523e 1e2d 2c3e 2794 223d
00000240: d4ea 593d 9bde 893d 815d 07be 7227 a0bb
00000250: 1236 46bd c6b1 c73d 9cca 1dbd 2ec2 52bd
00000260: 2358 c4bc 5b32 433d 57c9 a8bd e4b1 8a3c
00000270: 89a8 c43d 1e79 9b3b e387 103d 3e33 173e
00000280: 80cf 0a3e 44d8 853d 1cad 8ebb 2c48 45bc
00000290: e699 b0bd befc b53d 56d5 08be 310c b1bc
000002a0: 6b86 6c3e 8c8d cf3d 915c 1abe 6cc5 7abd
000002b0: e385 2d3d 37da a13d c0a8 9dbc 3d1a aabb
000002c0: e658 bb3d abe1 433d e8c5 083d 0967 0abd
000002d0: fe0a a83d 1a8c 83bd 607d e3bc 5056 6abd
000002e0: a811 3f3d 66e4 d1bd cef4 2c3d e041 a83d
000002f0: a0da 73bd 450b 723b 64dc a9bd 5142 a43a
00000300: bba0 3b3d 5b0b bebd 8714 92bd 9dcd 523d
00000310: 4652 cebd 799b b7bb f443 43bd a969 2bbe
00000320: 02a1 d03c 311c 313d 0b7c 42bd 39b2 403c
00000330: b191 5ebd 68bf 7e3d 4786 86bd 427f a3bc
00000340: 2a77 c43c f128 5cbc ebca 713c 86fd dc3c
00000350: fe31 b7bc 7bdc dabd 3cde 40bc 578c 9cbd
00000360: 6031 e03c 6c01 ccbb b1b3 8fbd 0a7f ac3c
00000370: 05d0 2abd dad2 d93d c512 ecbc 8118 14be
00000380: ab06 2f3d 0ffa d5bc b5a9 91bc c19f 093c
00000390: 9b00 c3bd a781 3dbb 6bef 443d 1656 99bd
000003a0: 41d8 7fbd 0030 9dbb 43a9 c93c d940 efbd
000003b0: bccf 01be be4a 393e 5ddd 6bbc c076 9f3c
000003c0: dbcd 1dbd e9bd b33d d12b 19bd 32a1 d13d
000003d0: 8927 9f3d cf36 9d3d afef c43d 3796 903c
000003e0: 9d58 f9bb edc6 633d 481c e1bd 3469 fbbd
000003f0: 2e67 d0bd 8dfd 8c3d 0cc1 0f3e 9a3f 693d
-0.0031317968 0.008966042 0.037344914 0.041395262 -0.02143341 0.036991168 -0.07060726 -0.111620784
0.037172828 0.056343984 -0.053585272 0.03321012 0.04919814 0.014560736 -0.107640274 0.041123226
0.041155558 0.032299474 0.006610071 -0.10494808 -0.030976318 -0.04397459 0.015954494 -0.01472475
0.0630905 -0.051388532 -0.052141104 0.043917973 0.00769277 -0.028984569 -0.043379605 -0.018835448
-0.039825216 0.08036508 -0.046225153 0.064913794 0.0612749 -0.108932 -0.05432984 0.07055633
-0.04877932 0.02773324 -0.09663082 -0.03494977 -0.034895536 0.0639363 -0.049627658 -0.08630616
-0.0013744116 -0.086620875 -0.106841415 -0.0147376815 -0.051778547 0.053776436 -0.038516853 0.049719743
-0.060173936 0.072387345 0.053639043 -0.057571396 -0.010683681 -0.09825087 0.0812432 0.057641592
-0.112742364 -0.10161436 -0.08062313 -0.08855831 -0.041147247 -0.056126922 0.06900419 -0.010205516
0.016035413 0.06763182 0.0014196237 0.05976905 0.011726135 0.048009656 0.014675269 0.0299955
0.02406979 0.06282427 -0.077153586 -0.07735895 -0.024425022 0.09149142 -0.07590961 -0.046671838
-0.12997966 -0.04867681 0.025282603 -0.06082485 -0.11256829 -0.04747494 -0.026481396 0.013109294
0.099506475 -0.023856914 -0.080458365 -0.10334984 -0.08931804 0.01147336 -0.06439371 0.02230833
-0.028927764 -0.05604954 0.06997883 -0.10204207 -0.037194926 0.050138276 0.069791846 0.05657371
0.09907327 -0.035032097 0.07553187 0.07692299 0.12994422 0.047343817 -0.0065553873 0.045405168
-0.07529607 -0.043973163 0.11767745 -0.17156652 -0.05534799 0.019044114 0.04298159 0.008899528
0.1459758 -0.1025377 0.17794937 0.0070085865 0.094226874 -0.041750405 -0.13066614 0.080657035
0.060149077 -0.010591185 -0.0854996 0.040100604 0.040385485 0.20533615 0.16814086 0.03969207
0.053202465 0.06731912 -0.13219263 -0.0048875147 -0.04839141 0.097507045 -0.0385233 -0.051454715
-0.023967808 0.047655445 -0.082415275 0.016930528 0.09602458 0.004744663 0.03528584 0.14765641
0.13555717 0.0653539 -0.0043541323 -0.012041133 -0.08623104 0.08886097 -0.13362631 -0.021612259
0.23098151 0.1013442 -0.15074374 -0.061223432 0.042364012 0.07902949 -0.019245505 -0.005191116
0.091478154 0.047822636 0.033391863 -0.03378967 0.082052216 -0.064232066 -0.027769744 -0.05721122
0.046647698 -0.10248642 0.04222565 0.0821569 -0.05953467 0.0036932987 -0.08293989 0.0012531971
0.04580758 -0.0927951 -0.071328215 0.05146562 -0.10074286 -0.0056032506 -0.047672227 -0.16739525
0.0254674 0.043239776 -0.047481578 0.011761242 -0.05433816 0.062194258 -0.0656858 -0.019958142
0.023982603 -0.013437496 0.014757852 0.026976358 -0.022362705 -0.106865846 -0.011771735 -0.07643955
0.027367294 -0.0062257554 -0.07016695 0.02105667 -0.04170229 0.1063592 -0.028817544 -0.14462472
0.04273097 -0.026120214 -0.017781118 0.008399905 -0.095216 -0.002891639 0.04807989 -0.07487123
-0.062462095 -0.004796982 0.024616843 -0.116822906 -0.126769 0.18094918 -0.014396039 0.019465804
-0.038526397 0.08776457 -0.037395302 0.10235824 0.077712126 0.076764695 0.096160285 0.017649753
-0.0076094405 0.055609632 -0.10991722 -0.12275925 -0.1017593 0.068842985 0.14038485 0.05694542

fully_connected2.bias f4 [10]
00000000: 7074 5bbe df4b 90be c416 983d 01dd 5c3e
00000010: 8579 3b3e 9202 8e3c 631e a23e f33f d5bd
00000020: 4a8b f8bd f252 80bd
-0.21431136 -0.28182885 0.07426217 0.21568681 0.18308075 0.01733521 0.31663808 -0.10412588
-0.12135942 -0.062658206
